model.pt (torch, 240165 bytes, 10 tensors)

weight f4 [28, 1, 3, 3]
000000 2f 37 6e be 62 50 01 3e 82 aa 9f 3d 7f 25 22 3e
       -0.23263238 0.1262832 0.07796194 0.15834616
000010 7c 05 87 bd 3f 7a da 3d 10 72 b5 3e 0e d2 fd 3d
       -0.06592843 0.10667848 0.35438585 0.123935804
000020 2c 5a cd bd fd 13 82 3e d8 47 07 be 64 6d ae 3e
       -0.100269645 0.25405875 -0.13211 0.34067833
000030 1e 53 b1 3d 3c bd 28 3e c7 05 42 3e f1 bd 6d 3e
       0.086584315 0.16478437 0.18947516 0.23216988
000040 3e b0 3f be 93 a8 69 be 0c 3b 76 3e 7a 39 50 3e
       -0.18719575 -0.22818212 0.24045962 0.20334426
000050 19 42 8e 3e 79 ff 59 be ba 0e 89 be 7c d5 3f be
       0.27784804 -0.21288861 -0.26769048 -0.18733782
000060 9d 25 9a be 46 7b 1c 3d ac b7 72 3d 55 0f 1d bd
       -0.30106822 0.0382035 0.059257194 -0.0383447
000070 a0 e7 ab 3e 7d 64 1c 3e 5c de 2b be fa df 11 3d
       0.33575153 0.15272708 -0.16784042 0.03561399
000080 31 e9 89 3e 30 52 20 bd 6d 9b 07 3e 9e 9b d7 3e
       0.26935723 -0.03914088 0.13242884 0.42110914
000090 11 90 01 be ac 66 11 3e 08 eb 2b be ef 5b c9 3e
       -0.12652613 0.14199322 -0.16788876 0.39327952
0000a0 1b 70 90 bd 83 96 98 3e 2c c5 7a 3e e1 c7 94 3e
       -0.070526324 0.2980233 0.24489278 0.29058746
0000b0 e9 3a e4 bc 23 72 8d 3e cd 92 b4 3d 4a 72 21 be
       -0.027860122 0.27626142 0.088170625 -0.15766254
0000c0 3b fb 40 be 08 92 91 be 0c dd fb 3d 5f 97 65 3d
       -0.18845837 -0.28431726 0.12298021 0.05605256
0000d0 fa d7 43 be 73 3b 70 3e 20 4d ae be d8 42 01 bd
       -0.19125357 0.23460178 -0.34043217 -0.031557888
0000e0 88 52 74 bd c8 47 2f 3d d9 25 0e 3e 75 e0 ab 3e
       -0.05964902 0.042793065 0.13881625 0.33569685
0000f0 ee f0 32 bd 8a 4a 8e 3e d4 6f 14 3e ab 58 03 3e
       -0.0436868 0.27791244 0.14495784 0.12826793
000100 1d da 3b 3e ba f1 40 be 1d bb b7 3e 5b 36 69 3e
       0.18344922 -0.18842211 0.35884944 0.22774641
000110 c8 d4 3c be f1 ab 27 3e 4c 6e 57 3e ce e5 37 be
       -0.18440545 0.16374184 0.21038169 -0.17958757
000120 63 48 31 3e 94 de a2 be d5 11 9e be 1c 6b 7e 3d
       0.1731277 -0.3181044 -0.3087298 0.062113866
000130 11 2e 09 be b0 7f 48 3e d6 a0 63 3e 0b f9 4a bc
       -0.13396479 0.19579959 0.22229323 -0.012388478
000140 54 d4 84 3e 71 48 87 3e 0d 35 b9 3e f6 9e 35 be
       0.25943244 0.26422456 0.36173287 -0.1773642
000150 b0 27 4f 3e b8 f4 1e be d5 0c 82 be 7c 60 b9 3e
       0.20229983 -0.1552304 -0.25400415 0.36206424
000160 27 37 b9 3d 6b 0b e6 3d 6c 9c c4 3d 2e 0f 54 3e
       0.090437226 0.112326466 0.096001476 0.20708916
000170 87 93 73 3e 26 f3 31 3d a7 7c 18 be 64 78 a9 be
       0.23786746 0.043444775 -0.14891301 -0.33099663
000180 2d a0 fe bc 35 51 3d 3e 00 bf 48 bd cf f4 0c be
       -0.031082237 0.1848801 -0.049010277 -0.13765262
000190 30 76 9e bd 8f b9 1b 3e 04 60 06 be 6e 67 6f 3e
       -0.07737386 0.15207504 -0.13122565 0.23379299
0001a0 42 28 04 3d 31 52 91 be 6e 35 30 3e ab 65 49 be
       0.032264955 -0.2838302 0.17207882 -0.1966769
0001b0 5a 13 fe 3d 90 36 c0 bd 8a c0 35 3d 25 56 a2 be
       0.12406035 -0.09385407 0.044373073 -0.31706348
0001c0 e7 ca 58 be f1 f8 13 3e 5a 11 1e be fa 88 b0 3e
       -0.21171151 0.14450432 -0.15436307 0.34479505
0001d0 fd b2 53 3e 43 46 60 bd 77 d4 04 be ff 0b 4c bb
       0.20673747 -0.054754507 -0.12971674 -0.003113508
0001e0 f5 46 19 be 76 45 b7 bd c7 29 8a bd 21 6f 1f 3d
       -0.14968474 -0.089487955 -0.0674625 0.03892434
0001f0 b0 6d e4 3d 35 94 5d be 7e 8d 8e 3e 42 98 6f 3e
       0.11153734 -0.21638568 0.27842325 0.23397925
000200 39 84 7c bd 73 28 19 3e 3d 54 32 3e 01 8d 8c be
       -0.061649535 0.14956836 0.17414947 -0.27451327
000210 71 30 9c 3d a9 c4 43 3e e3 3e 39 3b 00 4d af 3e
       0.07626427 0.19117989 0.0028266243 0.34238434
000220 2c aa 19 be a7 ae b8 bc 0f bc 94 3e 09 47 6d be
       -0.15006322 -0.022544218 0.29049727 -0.23171629
000230 96 5f ca bd 4d 1b a3 bd 37 81 5b bd c9 20 eb bc
       -0.09881513 -0.079641916 -0.053590026 -0.028702157
000240 50 00 8e be fc fc 96 3e 92 40 91 3d 54 e5 01 3e
       -0.27734613 0.29489887 0.07092394 0.12685138
000250 64 b3 23 bd 82 43 6a 3e f5 ac 16 bd 03 99 92 3d
       -0.039966002 0.22877315 -0.03678604 0.07158091
000260 c6 d3 c5 3e 08 8d 07 be b4 d3 fe 3d c5 63 61 be
       0.38638133 -0.13237393 0.12442723 -0.22010715
000270 ae 93 81 be 65 66 14 3d 69 da 16 be 8b 74 27 3e
       -0.25307983 0.036230464 -0.14731754 0.16353051
000280 f9 5f 8d 3e 50 95 84 be 62 7c cc 3d c5 d9 06 3d
       0.27612284 -0.25895166 0.09984662 0.032922525
000290 61 d8 81 3d 7f dc 94 be a7 cc 29 be 40 16 4f 3e
       0.06340099 -0.29074475 -0.16581975 0.20223331
0002a0 f1 61 26 be b7 9b a1 bd 77 07 66 3e 9c cf 04 be
       -0.16248299 -0.078910284 0.22463785 -0.12969822
0002b0 df f1 97 be b0 b0 fd 3b 41 9f 88 3e 39 23 0f 3d
       -0.2967672 0.00774201 0.26684 0.0349457
0002c0 0e b2 69 3e 93 e7 c5 3d 3a b0 45 3e a9 b9 40 3d
       0.22821829 0.0966331 0.19305506 0.04705206
0002d0 2d 2a 51 3e a5 9b b6 bd c9 e2 9e 3e 1f 39 bd bd
       0.20426245 -0.089164056 0.31032398 -0.092394106
0002e0 a2 30 3d 3e 0c a3 50 bd b5 8c 26 be b2 57 80 be
       0.18475583 -0.050936744 -0.16264613 -0.25066906
0002f0 e3 46 9e 3e 66 91 88 3e f5 f5 3d 3e 29 6d 47 3e
       0.30913457 0.2667343 0.18550856 0.19475235
000300 c8 4f 99 3d c7 9c ea bd 81 d1 e4 3d 8c 54 05 bd
       0.0748592 -0.11455684 0.11172772 -0.032551333
000310 cc a9 fa 3d a0 64 98 3e a9 7b 11 bb a9 0a 99 3e
       0.122394174 0.2976427 -0.0022198951 0.29890946
000320 ff de 1d be 9c 18 e6 bd 14 44 3b 3e fa 8c 29 be
       -0.15417098 -0.112351626 0.18287688 -0.16557685
000330 65 8d 93 3e 19 17 3e be ac 64 9e be ee a8 ba bd
       0.28818813 -0.18563499 -0.30936182 -0.09114252
000340 97 ac 1a 3d f0 72 e6 bd 6e f5 29 be f6 88 25 3e
       0.03776225 -0.11252391 -0.1659753 0.16165528
000350 25 a7 85 3d 0d 75 32 be 69 f8 86 3d eb 80 aa 3d
       0.06526021 -0.17427464 0.06590349 0.083253704
000360 56 30 e1 3b ca 1a 90 be dd 36 fc 3d 2c 07 80 bd
       0.006872217 -0.28145438 0.12315152 -0.06251368
000370 0e cb f5 3c b6 96 89 be 0c 37 82 3e 11 02 34 be
       0.03000405 -0.26872796 0.25432622 -0.17578913
000380 07 31 03 be 1c 2b 51 bd c0 73 94 3e 0b 63 fb bc
       -0.12811671 -0.051066503 0.2899456 -0.030686876
000390 a1 a6 89 3d 50 61 66 bb f0 b2 9c 3d ba 93 6f 3e
       0.06721235 -0.0035153218 0.07651317 0.23396197
0003a0 45 3a f9 bd a3 1f 99 be 14 e4 5a be 3e eb 0a be
       -0.12169317 -0.2990695 -0.21376067 -0.135663
0003b0 12 00 87 3e e9 ee 35 bc f1 f8 5b 3e e0 6e 80 be
       0.2636724 -0.011104324 0.21481682 -0.2508459
0003c0 8a 33 5e bd 1d 93 a4 be 8b 53 85 3e 88 db 17 be
       -0.05424837 -0.3214349 0.260403 -0.14829838
0003d0 ad 30 3c be 3f 9e ae be 2e 75 52 be ef 82 83 be
       -0.18377943 -0.34105107 -0.20552513 -0.25685832
0003e0 c2 d4 98 be b0 bb 30 bc e4 da df 3d 60 d4 ad bd
       -0.2984982 -0.010786936 0.10930422 -0.08487773

bias f4 [28]
000000 05 ae 8e bd 43 14 2e be 4d 26 1e be e3 f2 24 3e
       -0.06966785 -0.16999917 -0.15444298 0.16108279
000010 04 42 03 3e 4b 3d 40 bd ba 1f 79 be 0b 2a 67 3e
       0.12818152 -0.046933454 -0.24328509 0.22574632
000020 78 b8 72 3e b5 b2 85 3d be 91 85 be 95 24 99 3e
       0.23703182 0.06528226 -0.26087755 0.29910722
000030 55 4c 2c 3e d7 d2 6d 3e 53 4d 40 be f4 4c af 3c
       0.16825993 0.2322496 -0.18779497 0.021398999
000040 ff b8 75 3e cb 2b c0 bd 27 18 9d 3e ee ad 5e 3d
       0.23996352 -0.09383353 0.3068249 0.05436509
000050 43 b2 a0 3e 31 81 0c bc 81 c3 52 be 7d 40 43 be
       0.31386003 -0.0085757235 -0.20582391 -0.19067569
000060 bd c4 91 3e 89 e1 8d be f5 bb 6a 3c 46 2a 20 3e
       0.28470412 -0.27711132 0.014327039 0.15641126

weight f4 [28, 28, 3, 3]
000000 99 9f 90 3d 1c 70 bd bc 39 97 71 3d 79 b6 51 3d
       0.07061691 -0.023124747 0.058982108 0.05119941
000010 66 2d 92 3d 49 30 62 bb 34 3e 84 3d e1 b3 2c bc
       0.07137565 -0.0034513643 0.06457177 -0.010540933
000020 f3 2f 1b 3b df 26 7e bd 3b 2c 7d bd 7c 10 8a bd
       0.0023679703 -0.06204879 -0.06180976 -0.067414254
000030 ed 57 88 3a d0 38 88 3d 0a 29 5c 3d 08 09 c2 3a
       0.001040218 0.06651461 0.053750075 0.0014803717
000040 f3 78 0f bd 8f c2 ac 3d b6 c5 61 bd 2d ee 2d bd
       -0.035027456 0.084355466 -0.055120192 -0.04246347
000050 f3 43 f8 bc 4d c1 8b bd 00 73 23 bd 3c a2 2c bd
       -0.030305838 -0.068239786 -0.039904594 -0.042146906
000060 45 f6 c5 bc 9c 52 51 3c e9 b6 fd 3a 91 b4 b3 bd
       -0.024165282 0.012776043 0.001935688 -0.08774675
000070 e1 32 7c 3d b2 5f e0 3c b9 2f dd bc f7 65 e1 bb
       0.06157196 0.027389381 -0.027000295 -0.0068786102
000080 aa 96 19 3d 04 db ba bb 88 0c f7 bc d4 ba c4 bc
       0.0374972 -0.005702378 -0.030157343 -0.024014868
000090 4d c1 68 3d 1c 42 d3 3b 7e 4a e7 bb 5d dc 04 bd
       0.05682497 0.00644709 -0.0070584407 -0.032436717
0000a0 cd cc 4c bd 12 e1 0c bd 1d 3c d1 bc c9 17 8b 3c
       -0.05 -0.03439433 -0.02554136 0.016979115
0000b0 a1 6d 21 3d d0 e2 22 bc 2d 71 07 3d 2d 33 f9 bb
       0.03941119 -0.009941772 0.033066917 -0.0076049776
0000c0 f3 98 b4 3c 6a d4 29 bd e9 4b 41 bd 51 ae 2a 3d
       0.022045588 -0.04146234 -0.047191534 0.041670147
0000d0 bd 78 92 3c 73 93 b9 3c 91 12 62 3b 96 cd 8a 3d
       0.017879838 0.022653317 0.003449593 0.06777494
0000e0 2d a4 3f bd f9 54 b4 bc ae 59 9f b8 80 16 6d 3c
       -0.04678743 -0.022013174 -7.598415e-05 0.014470696
0000f0 91 20 25 bc ec a8 ee 3d 4e 0f 77 bc 75 28 08 3d
       -0.010078565 0.11653313 -0.0150793325 0.033241708
000100 95 c7 bb bc 91 90 97 bd ae 0f 08 bd 3e 3d 38 3c
       -0.022922317 -0.07400621 -0.03321808 0.01124507
000110 0f c7 03 bd 09 0a b7 bc ce 32 b7 3c 27 17 da bc
       -0.03217226 -0.022343652 0.022363093 -0.026622368
000120 50 df 31 bd 5c 25 a0 bc 62 e6 90 3d 4c 0d d3 bc
       -0.043425858 -0.019549064 0.07075192 -0.025763176
000130 af fc 52 3c 86 9a 20 3d c2 77 fd bc 29 71 0a 3d
       0.012877627 0.039209865 -0.030940894 0.033799324
000140 4b d3 5f 3d 57 61 46 3c 90 21 50 bc d8 fb 72 bc
       0.054644864 0.012108169 -0.012703314 -0.014830552
000150 eb f3 87 bd 2a fb 79 3d 50 f2 31 3d a1 03 ba 3d
       -0.066383205 0.061030544 0.043443978 0.090827234
000160 78 81 81 bb f7 0d 1a 3d 66 4e ad 3d 39 66 dd 3b
       -0.0039522015 0.037610974 0.08462219 0.0067565707
000170 d4 74 92 bc 3b 9e 4d bd a3 c4 62 3d 21 87 d5 bc
       -0.017877974 -0.05019973 0.05536331 -0.026065411
000180 d9 40 26 bd e1 3e bc 3c 2a 0b ed 3c 8a bb 90 bc
       -0.040589187 0.022979202 0.028935988 -0.01766755
000190 c9 f5 d3 bc 8d 0a 85 3d 6f c3 51 bb f7 cc 1c bd
       -0.025874035 0.06496153 -0.0032007357 -0.038281407
0001a0 c2 96 2d bd 45 c2 ac 3c f7 f4 2f bd 2b 1b c2 3c
       -0.042380102 0.021088729 -0.042958226 0.023694595
0001b0 dc d6 07 3d 6c 42 fe 3b d9 b5 cb 3c 69 fd 52 bc
       0.03316389 0.007759383 0.024866985 -0.0128778005
0001c0 9c c5 27 3d ac 75 9c 3d 16 10 68 3d d5 a3 92 3d
       0.04095994 0.07639632 0.056655966 0.07160155
0001d0 b7 7a 8b 3d fe 4f 40 3d 96 0b 67 3d 56 ac 07 bd
       0.068105154 0.046951286 0.056407534 -0.033123337
0001e0 ca 51 01 3d 53 3b fb 3c ad 28 28 3d 50 ac f6 3c
       0.03157214 0.030667936 0.041054416 0.030111462
0001f0 72 1f 69 3d b2 07 5d bd 68 db d4 3b 4f 30 ca 3b
       0.056914754 -0.053962417 0.006495882 0.0061703096
000200 32 1a 92 3c b9 8f 5a bc 3b 0c 67 3d 24 6c 64 3d
       0.017834757 -0.01333993 0.05640815 0.055767193
000210 79 c9 6c bd 56 bd 3f bd 07 b3 ac bc 2c 9b 6e bd
       -0.057809327 -0.046811424 -0.02108146 -0.058253452
000220 4a 85 6d 3d b8 96 99 bc 78 bc 44 bb 4f 0d 6c 3d
       0.057988442 -0.018748626 -0.0030019563 0.05762988
000230 df ec 34 3d e8 75 8a 3c 59 b4 a7 3c 4e 8c 28 3d
       0.04417121 0.016901925 0.020471739 0.04114943
000240 4b ef 0e bd 34 9b 6a bd a9 5b ad 3c a3 c0 14 3d
       -0.034896176 -0.05727692 0.021161871 0.036316525
000250 7d 5a 06 bd ff f8 3a 3d 53 69 c3 3b 4f 7a 9c bc
       -0.03280114 0.045647617 0.0059634834 -0.01910129
000260 cc f1 3a 3d 30 86 41 bc ac 0a a4 bc a0 b2 15 bc
       0.04564075 -0.011811778 -0.02002462 -0.009136826
000270 d4 61 7c 3d bd 92 4e 3c 14 5c 85 3d d2 3d 53 bc
       0.061616734 0.012608227 0.06511703 -0.012893157
000280 53 7c c8 bc 96 05 04 3d 88 21 5b bd 15 18 00 3c
       -0.024473345 0.03223189 -0.053498775 0.007818242
000290 5a ee 09 3d 6c 64 9d bb 29 53 e6 3b e3 14 4f 3d
       0.033674575 -0.004803231 0.0070289564 0.05055703
0002a0 77 27 c1 3c bb e4 81 3d 7b 7e 3a bd 2d 3e 4c 3d
       0.023578389 0.06342455 -0.045530777 0.049863983
0002b0 08 d2 3d 3c 94 25 15 bd 76 d4 16 3d c3 14 4f bc
       0.01158572 -0.03641279 0.036823712 -0.012639227
0002c0 4f ba 3a bc 47 84 07 bd db 73 9b bd 7a 59 01 bc
       -0.0113969585 -0.033085134 -0.07590457 -0.007894868
0002d0 67 bd 1d 3c 2b 90 a7 bd 15 92 f3 3c 87 34 b3 3c
       0.009627677 -0.08181795 0.029732743 0.021875633
0002e0 18 7e 14 3c 31 dd a7 bd f3 db ab bb c5 02 2f bd
       0.009063266 -0.08196486 -0.005244726 -0.04272725
0002f0 fd 91 88 bd 7d 1e fa 3a 42 b8 66 bd 22 49 05 3d
       -0.0666847 0.0019082573 -0.056328066 0.032540448
000300 f6 f6 38 3d 3e b4 77 3d 77 72 89 bb 80 fb 10 3d
       0.045157395 0.060474627 -0.0041945535 0.0353961
000310 ce d4 7f 3d be 5d a9 3d ad 6c e1 3c ed 9f 47 bd
       0.062458806 0.08269833 0.027517641 -0.0487365
000320 38 2b 96 3c 1b c4 37 3d c2 3a 12 bd 21 5c 86 bc
       0.018331155 0.044864755 -0.035700567 -0.016401352
000330 a2 5d b7 3d bd a1 56 bc 2e 92 e6 bb fd df e8 3d
       0.08953406 -0.013100085 -0.007036469 0.113708474
000340 1e cf dc bd 83 a0 00 3d 3e 7f 50 3d 32 2a ae bc
       -0.10781692 0.031403076 0.050902598 -0.021260355
000350 91 00 61 3d 19 21 0f 3d 15 ca 8e 3d 4a 1b 17 bd
       0.05493218 0.034943674 0.06972138 -0.03689126
000360 5e af 55 bd 42 b7 1b bd 5d 98 0b 3d b1 82 31 3c
       -0.052169196 -0.038016565 0.03408085 0.010834382
000370 cc 5e 04 3d f7 01 14 3b 79 01 98 bc ba df b1 3c
       0.032316968 0.002258418 -0.01855539 0.021713126
000380 96 08 11 3d e5 17 8d bd fa e4 23 bd 5e 40 66 bd
       0.03540858 -0.06889323 -0.04001329 -0.05621373
000390 11 4f 5a bc 43 92 e8 3c 04 c2 ad 3c 4a f9 50 3d
       -0.013324515 0.028390056 0.021210678 0.05101899
0003a0 bb 55 da bd 7f e7 f4 bc da f4 ae bc 1f e7 5e 3d
       -0.10660883 -0.029895542 -0.021356989 0.054419633
0003b0 0e f0 a1 3c 5d 94 e2 3b b5 ad 92 3d a6 11 4d 3d
       0.019767787 0.006914659 0.07162038 0.05006566
0003c0 ad dc e8 3c 10 bf 94 bc 19 cf 1e 3d 1f d6 5a 3d
       0.028425539 -0.018157512 0.038771722 0.053426858
0003d0 52 fb 39 3d e8 97 35 3c b1 10 14 3c ff d5 36 bb
       0.045405693 0.011083581 0.009037183 -0.0027898548
0003e0 f7 77 7b 3a 9d cb 4c 3d ed 45 db bc 8f b5 52 3d
       0.00095927663 0.04999887 -0.026766742 0.05144268
0003f0 fa 7c 10 3c b0 a9 6b 3d d4 3c 46 3d 0b a7 3d 3d
       0.008818859 0.057534873 0.048397854 0.046301883

bias f4 [28]
000000 39 b6 f7 ba 33 64 2b 3d 7f a9 b7 3c 77 ab a0 bc
       -0.0018898911 0.041843604 0.02241969 -0.01961301
000010 73 31 0d bd 34 53 19 bd 04 96 c5 bc 15 43 27 3d
       -0.034470987 -0.037432864 -0.024119385 0.04083546
000020 b7 75 f4 3c ea 82 5d bd c6 96 1f 3d c0 c3 13 3d
       0.029841287 -0.054079928 0.038962148 0.036075354
000030 03 bf 92 3b 65 3c 0b bc 4d 29 91 3c 75 e2 5e 3c
       0.004478337 -0.008498286 0.017719889 0.013603796
000040 5f 8a e7 bc a5 64 2a 3d 5c 67 6e 3d 6d ef 3d 3c
       -0.028264223 0.04159989 0.05820404 0.011592728
000050 e3 0c 8e 3d e5 b5 18 3d 0c 79 87 3d 6d 9c 24 3d
       0.06936052 0.037282843 0.06614885 0.04018824
000060 1f 9f 01 bd 63 ae f9 bc 12 93 10 bd be be 30 bb
       -0.03164589 -0.030478662 -0.035296507 -0.002696916

weight f4 [56, 28, 3, 3]
000000 37 c6 b3 bb 42 5a 83 3c dc 24 40 3d 22 04 0e bd
       -0.0054862755 0.01603425 0.04691015 -0.03467191
000010 97 df 65 ba b7 76 78 3c 5a 7c 97 3c 03 59 02 bd
       -0.0008768974 0.015165023 0.018491913 -0.03182317
000020 13 06 a9 3c 83 4d e6 bc c6 6c 1d bd ab 5b 58 bd
       0.02063278 -0.028113132 -0.038433813 -0.052821796
000030 95 fe 11 bc 91 83 12 3c b9 ae b9 bb 18 bc eb bc
       -0.008910795 0.008942501 -0.0056665805 -0.028776214
000040 ab cc 18 3c af e6 c2 bc 92 77 a6 3d 53 43 20 bc
       0.00932614 -0.02379164 0.08128275 -0.009781676
000050 67 de c4 3c df 81 91 3d ea ef 3b 3d 84 e7 8a 3c
       0.024031831 0.07104849 0.045883097 0.016956098
000060 88 f8 95 bc f5 35 eb bc fc 99 54 bc a9 16 cc ba
       -0.018306985 -0.028712252 -0.012976166 -0.0015570718
000070 2f 3a 14 bd 52 e2 95 3d e9 f4 e1 3c 53 39 f4 3b
       -0.0361883 0.07318558 0.027582603 0.0074531226
000080 e3 2c 0f 3d c5 78 da bc 73 c7 7f 3d 07 42 25 3d
       0.034954917 -0.026668916 0.06244607 0.04034617
000090 5b 19 2d 3d ab 45 18 bd 1c e5 4a bd a4 7d 04 bd
       0.04226051 -0.037175816 -0.049534902 -0.032346383
0000a0 6c ed 00 bd 57 fa b5 3c d1 e5 54 bc bf 83 1e bd
       -0.031476423 0.022214098 -0.012994246 -0.03869986
0000b0 ea 80 3a 3d ce 76 08 bb ed 4a 0b 3d 8e 59 1c bc
       0.0455331 -0.0020822766 0.034007 -0.009542836
0000c0 04 4c a5 3c 5c 36 a7 bb c0 d6 e7 3b d8 53 dd 3c
       0.020177849 -0.0051029157 0.0070751607 0.027017519
0000d0 71 93 28 3d 6e e0 e1 3c 42 d9 a6 bc 80 43 67 bc
       0.041156236 0.027572837 -0.020367268 -0.014115214
0000e0 16 79 47 bd 18 32 8b 3b 6f 5b 76 3d 1c e6 7c 3d
       -0.04869946 0.004247915 0.06014579 0.061742887
0000f0 c6 cf 22 3d 87 d6 64 3d fb de aa 3c ba b4 2d bd
       0.03974893 0.05586865 0.020858278 -0.042408682
000100 46 2b 0f bd 4a fd 0f bd fa 55 64 bd cc 8a 81 bc
       -0.03495338 -0.035153665 -0.055746056 -0.015813254
000110 1a 51 33 3d 0b 02 8b bd 54 7b 66 bc b9 60 0c bc
       0.043778516 -0.06787499 -0.01406749 -0.008567982
000120 a9 b8 a4 bd 67 d0 19 3c 45 84 76 bb 0e f2 24 3d
       -0.08043034 0.009388066 -0.003761546 0.040269904
000130 3f 79 5d bc b9 21 45 bb b8 c4 87 3c 8b 4b 89 3b
       -0.013517677 -0.0030079915 0.016573295 0.0041899136
000140 f9 5c 40 3d 43 8c be 3c 09 6d 92 3c 76 16 97 3c
       0.046963666 0.023260241 0.017874258 0.018443327
000150 31 a3 80 3c 4e b6 db 3c e0 c4 5e 3c 98 5c 50 3d
       0.015702816 0.026820328 0.013596743 0.050869554
000160 fc 03 79 3d cf 9b ee 3c e5 de 29 bc ff ce 97 bd
       0.060794815 0.02912703 -0.010368084 -0.07412528
000170 93 3a 8e bd 22 ce c8 bb 85 0d ef bc cb 0d dd bc
       -0.06944766 -0.0061280886 -0.029181251 -0.026984116
000180 cf 2d 46 3a c3 0e 25 3d 59 25 f5 ba 2d dc c4 3c
       0.00075599266 0.04029728 -0.0018703147 0.02403077
000190 e1 64 0c bc 92 4d 9a 3c b9 ea 20 3d 17 6c 39 3d
       -0.008568973 0.018835817 0.03928635 0.045269098
0001a0 de 01 b7 bc d0 c1 9d ba 70 6d 8c bc 17 a1 15 3d
       -0.022339758 -0.001203591 -0.017142028 0.03653058
0001b0 af fa 63 3c cb 43 ba 3c 6d 4f be bd 16 4c c1 3c
       0.013914748 0.022737404 -0.09292493 0.02359585
0001c0 7e e0 34 3d 1a 1a 21 bd b3 24 5e 3c 92 8b 12 bd
       0.044159405 -0.039331533 0.013558554 -0.035777636
0001d0 fe 4f 3a 3d 0f 4d d9 bc 63 e2 7b bd d8 83 9a bd
       0.045486443 -0.026526002 -0.061495196 -0.075446784
0001e0 6a 18 ae 3c 03 b0 ed 3c 44 44 2e 3d 60 1f 38 bd
       0.021251876 0.029014593 0.042545572 -0.044951797
0001f0 4f 17 a4 bc da 9c 29 3d 74 d9 48 3d fb 4a af 3d
       -0.020030646 0.04140935 0.049035504 0.08559223
000200 28 49 09 3b dd 89 3c 3c 30 22 91 3d 92 63 06 3d
       0.0020948146 0.011507479 0.07086599 0.0328098
000210 ac 84 e5 bb d5 95 27 bc 49 94 5e bd ed 00 a5 bd
       -0.007004341 -0.010228594 -0.054340634 -0.08056817
000220 68 82 14 bd 13 b3 54 bd 80 bc 81 bd aa 0a 55 bd
       -0.036257178 -0.05192859 -0.06334782 -0.052012123
000230 57 3d 21 bd b3 f8 5c bd 3a e4 9f bb 1f 2d 64 bc
       -0.03936514 -0.053948116 -0.0048795016 -0.013926773
000240 c4 41 8f bc 56 0e 18 3d 9b 7b 4e 3d 84 56 56 3d
       -0.017487414 0.037123047 0.050410848 0.0523286
000250 10 61 64 3c 97 3b ff 3c 08 f4 0a bd 53 f9 9a 3d
       0.013939157 0.031156344 -0.033924133 0.07567086
000260 2a 24 69 bc 5b 37 aa b9 a5 93 33 bd d6 4c bd 3c
       -0.014229814 -0.0003246617 -0.043841977 0.023107927
000270 51 86 1d 3c 0b 9c 73 bd 11 bb 68 3c 83 52 b6 bc
       0.009614543 -0.059474986 0.014204756 -0.022256142
000280 22 75 b4 bc 46 ab 7d bc 39 61 aa 3c 9d 4d 21 bd
       -0.02202851 -0.015482729 0.020798313 -0.03938066
000290 c1 3d 33 bd 13 4e a4 3c e9 6c 21 bc 31 ab 86 bc
       -0.043760065 0.02005676 -0.009852626 -0.016439052
0002a0 dd 83 13 3d d6 07 9b 3c 8a 39 9e 3c 0c a7 49 bd
       0.036014426 0.018924635 0.019314546 -0.049231574
0002b0 2a 37 56 bd 45 ca 89 bd 48 d5 bf 3c 45 27 0f 3d
       -0.052298702 -0.06728033 0.02341713 0.03494956
0002c0 d8 25 78 bc 08 4a a4 3c 36 47 b0 3c c5 ff 17 bd
       -0.015145741 0.020054832 0.021518331 -0.037109155
0002d0 ac 6b ad bd 64 f1 4e 3c df ac 93 bc bd 7f 84 bd
       -0.084678024 0.012630794 -0.018026767 -0.06469677
0002e0 1f ec 08 3c 9b dd 46 bb ce e7 15 bd ce a1 74 bd
       0.008357077 -0.003034449 -0.03659802 -0.05972462
0002f0 ee 10 12 3d 7c 29 37 bd 73 ec 41 3d b0 89 e8 bc
       0.035660677 -0.044717297 0.047344636 -0.028385967
000300 53 42 86 3c 7f c0 3f bd fb 42 cd bb bf 93 f7 3c
       0.016389048 -0.046814438 -0.006264088 0.030221818
000310 ee ca 26 ba 36 c9 b3 3c 08 d7 32 3c d4 3b af 3d
       -0.00063626363 0.02194653 0.010915525 0.08556333
000320 52 f3 3b 3c 75 6d fe 3c 95 4e 51 bc a8 ff 33 bc
       0.011471586 0.031058053 -0.012775083 -0.010986246
000330 cc 3d dc 3c e7 c9 95 3d cc 17 07 3c 8d 5a 30 3d
       0.026884936 0.073139004 0.00824542 0.043055106
000340 4c 28 e5 ba 10 15 5d bd 64 53 81 bd ff 79 6e bd
       -0.0017483323 -0.053975165 -0.063147336 -0.058221813
000350 84 4e a3 bc 6c 2c c5 3c e3 27 84 bd fb 92 1a 3d
       -0.0199349 0.024069034 -0.0645292 0.037737828
000360 b5 68 0d 3d 03 24 05 bd 38 19 26 ba e8 9b ba bc
       0.034523685 -0.032505047 -0.00063361553 -0.02277942
000370 7e 9e 94 3b 2a 32 3e bd f0 4b 4d bd 23 31 3b bd
       0.0045354953 -0.04643456 -0.050121248 -0.045701157
000380 c5 de 34 bd d0 a1 bb bd 56 97 0e 3d 35 ea 32 3d
       -0.044157762 -0.09161723 0.034812294 0.04368039
000390 af a1 5c bd 69 ae 19 bd fa e1 3f bc d9 b8 a9 3c
       -0.05386513 -0.037519846 -0.011711592 0.020718025
0003a0 3a 50 39 3d ed fc 64 3b 2e b9 d5 bb 25 2a 9e bd
       0.045242526 0.0034940795 -0.0065223193 -0.07722882
0003b0 01 46 0b 3c 91 77 a2 bd dd 65 24 3c 9a 21 c5 ba
       0.008500577 -0.07932962 0.010034052 -0.0015039921
0003c0 57 89 43 bd d9 7c 3a 3c 42 aa 9d bd e3 d2 8b bd
       -0.0477384 0.011382305 -0.0769849 -0.06827333
0003d0 38 ca 69 3c 9d b5 c7 bc 01 52 60 3c fc 54 3c 3c
       0.014269404 -0.024378592 0.013691426 0.011494871
0003e0 c5 af 3a 3c 21 ba 90 bd 3b de f1 bb bc db 0c 3d
       0.011394446 -0.07066751 -0.0073812283 0.034389243
0003f0 13 f3 21 bd 8f 1e 07 3d df 4d 09 3d 3d e6 7b 3d
       -0.039538454 0.032988127 0.03352153 0.06149887

bias f4 [56]
000000 90 db 13 3d 71 d7 59 3d 6e 58 60 bc 80 f8 1d bd
       0.036098063 0.053183977 -0.013692958 -0.038567066
000010 75 09 0f bb 98 0b 1f bd ea 00 52 3d 58 1f b4 3c
       -0.0021825705 -0.038829416 0.051270403 0.021987602
000020 1a b6 0d bd bc 55 2c 3d 7f 6d 18 3d a8 b4 03 3d
       -0.034597494 0.04207395 0.0372138 0.03215471
000030 de 99 12 bd b9 e0 06 bd 04 2c 47 bc a2 7d df bc
       -0.03579127 -0.032929156 -0.01215649 -0.027281586
000040 9b 3f 07 bd cd 00 06 bd 5f ff 48 3c 0c e9 38 3d
       -0.033019643 -0.032715607 0.012267916 0.045144126
000050 52 e5 2b 3b 97 37 4e 3d 79 95 79 3d 74 36 6f bd
       0.0026229215 0.050345983 0.060933564 -0.05840154
000060 c5 58 d7 bc 3e f9 47 bd d8 a4 9e bc c9 ba 15 3d
       -0.026287446 -0.04882168 -0.019365713 0.036555085
000070 89 0a b4 bc 94 97 36 3c 6c 3f 07 3d c5 53 ab 3b
       -0.02197768 0.0111445375 0.03301947 0.005228492
000080 ca 06 86 3d 7f 4c 80 3d 33 29 02 bd 73 92 a2 bb
       0.06544264 0.062645905 -0.031777572 -0.0049613058
000090 40 4c 05 bc 3f 3c 07 3d 7c 2e b7 3b 68 79 51 3d
       -0.008135855 0.03301644 0.005590258 0.051141173
0000a0 73 77 01 bd e4 90 c8 3c 61 43 45 bd 3f 95 12 bd
       -0.031608056 0.024483152 -0.04815996 -0.035786863
0000b0 37 d5 2d bd d5 7b e3 bc b0 e5 9e bb b7 97 32 3d
       -0.042439666 -0.027769009 -0.004849158 0.043601718
0000c0 d2 c2 a6 3d 4e 5e bb 38 0c e8 81 3d 5f 5c 8e bd
       0.08142628 8.9344205e-05 0.063430876 -0.06951212
0000d0 46 43 1a bc 03 b3 1a bc 6b 61 7d bd fa 00 3c bd
       -0.009415453 -0.009442094 -0.061860483 -0.04589937

weight f4 [56, 56, 3, 3]
000000 65 81 90 bc 13 8e 44 3c 28 20 04 bd c6 eb 60 ba
       -0.017639825 0.011996764 -0.03225723 -0.0008580055
000010 e9 57 8b bd 71 8f 70 bd 72 48 31 bd b4 fb 7b 3c
       -0.06803877 -0.058730546 -0.04328198 0.015379835
000020 7f 26 7f bd a5 90 41 3d 65 cd 4a 3c a3 2f 81 3d
       -0.062292572 0.047257084 0.012378071 0.06307914
000030 8e f0 a4 ba eb 8a 68 bc e9 c4 0f b9 79 09 a5 3c
       -0.0012583898 -0.014193277 -0.00013710897 0.020146118
000040 df 0d 4f 3d bb fe 40 3d ca 67 60 3d fe 09 97 3c
       0.050550338 0.04711793 0.05478648 0.018437382
000050 0a b1 8c 3d f8 47 0b 3c d7 20 02 3c e8 44 44 3d
       0.06869705 0.008501045 0.0079424 0.047917277
000060 b9 18 57 3c 32 a1 88 3c 31 4c 9b bc e2 2b 26 bc
       0.013128453 0.016678426 -0.01895723 -0.010142298
000070 63 80 66 bb 89 b1 28 3b f3 82 9b 3b 27 9d 09 3d
       -0.003517174 0.0025740585 0.004745835 0.033597138
000080 cc ad 37 3d b6 83 77 3d 09 7a a6 3c f2 cb 83 3c
       0.04484348 0.060428344 0.020321863 0.01608846
000090 ee 0c 1d bc 40 76 5b 3c f7 a3 25 bc bf c8 16 bd
       -0.009585602 0.013394892 -0.010109893 -0.03681254
0000a0 2d e1 47 bd 5d f7 91 3c 2b 4d 1b bd e0 fd 7f 3c
       -0.04879873 0.017818147 -0.03791539 0.015624493
0000b0 8d 19 2c bd 2e 5e 98 3c 49 35 ec bc e5 f7 77 3c
       -0.042016555 0.018599596 -0.028834002 0.015134786
0000c0 c5 55 4f 3c a1 4a e8 3c f0 f0 17 bd af 6e ea bc
       0.012654726 0.028355898 -0.03709501 -0.028617231
0000d0 fb b6 0a bd 3b b7 a4 bc 84 53 51 bd 41 fb 3b bd
       -0.03386591 -0.020106902 -0.051105037 -0.04589391
0000e0 48 d6 30 bd 76 b3 52 bd 6f 59 33 bd 76 6a 1a 3c
       -0.043173105 -0.05144068 -0.043786462 0.009424796
0000f0 46 79 24 bd 2d b9 60 bc b6 70 0f 3c 60 5f 28 3d
       -0.040154718 -0.013716024 0.0087549 0.04110658
000100 46 0e 1f 3c 98 f1 88 3d fd 0a bb 3c 14 1f 51 3d
       0.009707993 0.06686705 0.022832388 0.05105503
000110 c0 26 49 bb cb cb bf 3c 09 17 f8 3c fa f2 c7 bb
       -0.0030693263 0.023412606 0.030284422 -0.006101963
000120 22 9a e0 ba ed 8b 62 3d 3b 4b 6e 3c 68 71 8a 3c
       -0.0017135779 0.055309225 0.0145443035 0.01689978
000130 fc 7f 86 3d e7 c6 fc bc 27 f0 48 3c 0b 51 5b bc
       0.0656738 -0.030856563 0.012264288 -0.013386021
000140 a6 18 f3 bc 04 bd 5b bd a7 b9 82 bd d7 f3 04 bd
       -0.02967484 -0.053647056 -0.063830666 -0.032459106
000150 42 bc 12 bc a4 f1 93 bb 78 ca 2c 3d 70 20 0d 3c
       -0.008956017 -0.00451489 0.042185277 0.008613691
000160 c9 71 45 3b 4d eb 4c 3d 67 95 9b ba c9 ea 4c bc
       0.0030127636 0.050029088 -0.0011870087 -0.012507149
000170 77 e2 9c 3d 22 12 30 bc 5e 88 15 3d ad 02 48 3c
       0.07660382 -0.010746511 0.036507003 0.012207669
000180 8f 90 1d 3d 7a d3 8f bc a1 f2 f9 3c 9e 8c ae 3c
       0.03846794 -0.017556895 0.030511202 0.021307286
000190 fd 64 07 bd ca 79 ff bc 7c db e6 3b 0e 54 95 3c
       -0.033055294 -0.031186003 0.0070452075 0.018228557
0001a0 0e d5 32 3b 45 de e5 3b 13 c2 48 3d de 9e dc bc
       0.0027287635 0.007015022 0.04901321 -0.026931223
0001b0 46 f5 be bb 1b f3 3f bd 31 77 b5 bc f6 0b ad 3c
       -0.0058275787 -0.046862703 -0.022151561 0.021123867
0001c0 73 7d 0a 3c ed a2 b3 3c f0 b7 bc bc 40 5d aa bc
       0.008452761 0.021928275 -0.023036927 -0.020796418
0001d0 53 40 f4 3c e8 d0 ad 3c fa b7 25 3c ec e5 c0 bc
       0.029815828 0.021217778 0.010114664 -0.023547135
0001e0 b6 ba 43 bd 0e 26 07 bd 54 5c 00 bd e0 4c 38 bd
       -0.047785483 -0.032995276 -0.03133805 -0.04499519
0001f0 13 18 8b 3c 75 ec da bc 87 e9 77 3d dd e2 22 3b
       0.016979253 -0.02672408 0.060525443 0.002485446
000200 9a 7c 84 3d 55 b8 60 3d b5 b4 85 bc e5 3d 91 3d
       0.06469078 0.054863293 -0.01632152 0.070918836
000210 32 75 7f 3d 37 8e 83 3d 5e a0 2b 3d c1 29 9b bb
       0.062367626 0.0642361 0.041900985 -0.004735202
000220 51 48 2e 3d 99 c6 4f 3c 12 b8 48 3d 64 6b aa bc
       0.042549435 0.012681627 0.049003668 -0.020803161
000230 9d cb a7 bc 84 f3 86 3d 53 39 88 3d 7b 0e 89 3d
       -0.020482833 0.06589416 0.06651559 0.06692215
000240 59 71 55 bd 8b 3b 47 bd 9c c6 8d bd 9e fb 31 bd
       -0.05211005 -0.04864077 -0.06922647 -0.04345285
000250 e4 a2 4c bc 7b d6 91 bd e4 c3 1a bd cd d6 eb bb
       -0.012490008 -0.07120987 -0.037784472 -0.007197237
000260 98 93 8c bd 3e c5 af bc a9 33 f8 3c 6f 70 ec 3b
       -0.06864089 -0.021456357 0.030298071 0.0072155516
000270 76 89 85 bc 65 ad 54 3d 0d 71 0b 3d 2f 5f 52 3d
       -0.016300898 0.051923174 0.03404336 0.051360305
000280 7e 0d 66 3d 35 2f 8c 3d c3 d6 a5 3b 06 f9 15 bc
       0.05616521 0.068449415 0.005061002 -0.00915361
000290 51 b9 aa bb 0b 19 5e 3d 15 c9 55 3d 9c 26 73 3d
       -0.0052100797 0.0542231 0.05219372 0.059362993
0002a0 e4 d8 50 3d d6 a7 57 3d d3 7c 39 3d f0 f3 68 3a
       0.050988093 0.052650295 0.045285057 0.0008886447
0002b0 f8 74 69 3a df 16 21 3c 1b 39 8d bc c7 19 3e bc
       0.00089056743 0.009832113 -0.017239144 -0.0116028255
0002c0 90 89 31 3c 1e e9 5c bb 5b df 40 3d 4a fb 5f 3d
       0.01083602 -0.0033708285 0.04708801 0.054683007
0002d0 04 d3 45 3d fa f4 95 3a 1c 74 85 3d 55 b2 12 3d
       0.048296943 0.0011440807 0.06516287 0.035814602
0002e0 97 9b a2 bc ec 30 3f 3d 71 6a 97 3c e3 e9 f5 3c
       -0.019849582 0.046677515 0.018483372 0.030018752
0002f0 8a 8d 99 3c 58 3b 41 3d f3 46 5d 3d 6d 63 1b 3d
       0.018744249 0.047175735 0.05402274 0.037936617
000300 72 0f 23 3d c0 bb 9b 3c 2b 14 07 bd 84 3a 08 3d
       0.03980965 0.019010425 -0.032978218 0.03325893
000310 d8 3f 39 3d 2d 46 3c 3d 26 a7 37 3d aa 64 21 3d
       0.0452269 0.045965362 0.04483714 0.03940264
000320 be 4c 56 3a be c2 60 3d 6f 62 26 3d 3a 9a 96 3c
       0.00081748876 0.05487322 0.040621217 0.018384088
000330 37 43 00 3c 61 70 a7 bb 9f bb 9d 3c 4a 41 86 3b
       0.007828525 -0.005109832 0.019254504 0.0040971385
000340 9b ce 6f 3c d9 57 1e 3d 6a 63 07 3d c9 bf 26 3b
       0.014636661 0.038657997 0.033053793 0.0025443903
000350 f7 9f cf 3c f3 82 ef 3b 9c 99 6f 3d 78 d0 ec 3c
       0.025344832 0.0073093115 0.058496103 0.028908
000360 20 7a 2d bc b0 03 61 bd 1d 2d 3e 3c 8c 92 0c bb
       -0.010588199 -0.054935157 0.0116074355 -0.0021449653
000370 c4 e1 a9 bc f5 21 97 bc 5b fb 24 bd c4 db ee bc
       -0.020737536 -0.01844881 -0.040278774 -0.029157527
000380 a5 38 b9 3c ae 8c 3f 3d 39 ef 8c bc 9a ab 8f bc
       0.022610018 0.046765022 -0.017203914 -0.01753788
000390 aa 6f a0 3c e0 14 48 bd ca 9e 2d bd 94 c2 6d 3c
       0.019584496 -0.048848033 -0.04238776 0.014511723
0003a0 9e 6c df 3c 4f e1 61 bc 06 c4 4c 3c b7 ff dc 3c
       0.027273472 -0.013786628 0.0124979075 0.026977403
0003b0 b3 83 a2 3d fc 85 8b 3b 89 fc 76 3d 87 5d 05 3c
       0.07935276 0.0042579155 0.06029943 0.008139974
0003c0 a0 20 44 3c 8b 04 9c bc d1 5d ba 3c df c9 5d bb
       0.011970669 -0.019045135 0.022749813 -0.0033842248
0003d0 56 59 56 bd 4a e5 39 bd b8 38 88 3b fe ce 4d 3a
       -0.05233129 -0.045384683 0.004157152 0.00078509736
0003e0 09 3c 62 bb 24 f3 2f bd 95 ae 2f bc 83 9f 38 3c
       -0.0034520647 -0.042956486 -0.010722776 0.011268499
0003f0 33 57 31 bd 34 bf 0d bd 67 74 49 3a c9 e2 31 bd
       -0.04329605 -0.034606174 0.0007684887 -0.04342917

bias f4 [56]
000000 11 4a bf bc 9a 6c a8 3c c6 6e c4 ba b6 9f 7b 3b
       -0.023350747 0.020559598 -0.0014986626 0.0038394756
000010 df 41 5e bc df 9f 1b 3d 5c 60 9a bc d3 9f 92 bc
       -0.01356551 0.03799426 -0.018844776 -0.017898476
000020 6c 81 6b 3c 75 1f 2c bd 4c d6 ad bb 49 0a 5d bd
       0.014374118 -0.042022187 -0.005305087 -0.053964887
000030 a5 9a 62 3c 99 53 0c bd 6d 0f 45 3b cb 6e 2c 3c
       0.013830815 -0.034259412 0.003006901 0.010524462
000040 38 05 01 bd cd f5 3d 3b 85 65 5e 3d 8f d0 16 3d
       -0.031499118 0.002898562 0.054296035 0.03681999
000050 1f 34 3c bd e3 40 4f b9 cc a8 22 3d 7b e7 a1 bc
       -0.045948144 -0.0001976523 0.03971176 -0.019763699
000060 39 d6 3d 3c d5 71 14 bd 70 f5 fe bc 1f e5 ed bc
       0.011586719 -0.03624137 -0.031122893 -0.029039918
000070 b5 c0 60 bb a2 56 d8 bc 8c 31 47 bc 27 95 03 3d
       -0.003429455 -0.026408497 -0.012157809 0.032124665
000080 f4 1d 86 3c 82 c1 af bc 83 af a1 3c 66 be d0 bc
       0.016371705 -0.021454576 0.01973701 -0.025481414
000090 e6 7f 0c 3d 12 f9 31 bc 11 77 2a 3d ed 18 f3 bc
       0.03430166 -0.010862606 0.041617457 -0.029674971
0000a0 93 9a 48 bd 70 52 0e bd d6 21 55 bd fa 67 02 bd
       -0.04897554 -0.034746587 -0.05203422 -0.03183744
0000b0 ff 62 25 3d a2 66 36 bc 54 14 47 bc 4d 92 8b 3c
       0.040377613 -0.011132868 -0.012150843 0.017037535
0000c0 50 83 b7 3c 9f 90 f3 3c 29 8a 44 bd 1c 6c f5 bc
       0.022401482 0.029732047 -0.047983322 -0.029958777
0000d0 b1 e8 60 3b fb 49 05 bd 82 87 9e bc 69 41 d6 bc
       0.0034318382 -0.032541256 -0.019351725 -0.026154237

weight f4 [3, 2744]
000000 94 e3 a7 bb 99 28 05 bd 5b 43 8e bb db 20 94 3c
       -0.005123565 -0.03250942 -0.0043415255 0.018082073
000010 70 31 ed bb 02 02 f4 bc f3 49 1e ba 10 15 b0 bb
       -0.0072385594 -0.029786114 -0.0006038241 -0.0053736046
000020 d3 73 b2 bc 82 4e 9d bc a2 4c 88 bc 13 11 75 bc
       -0.021783745 -0.019202475 -0.016638104 -0.014957684
000030 58 70 5b bd 8e b5 e7 3b cb 89 10 3d c2 18 0d b9
       -0.053573936 0.0070712036 0.03528766 -0.00013456031
000040 de 58 8b bc 3d 09 fa bc 5a d1 11 bd e4 41 97 bc
       -0.017010149 -0.030521983 -0.035600044 -0.018464036
000050 21 67 66 bb b7 f2 32 bc 03 28 aa bc 4c f7 82 bc
       -0.0035156684 -0.010922126 -0.020771032 -0.015987061
000060 c0 0b ab bc 15 82 25 bd 71 85 27 bd 6b e7 94 3c
       -0.020879626 -0.04040726 -0.040898744 0.018176755
000070 1c 39 41 bc 93 c5 4c bd 19 89 17 bd 00 19 1a bd
       -0.011793401 -0.04999311 -0.03699598 -0.037621498
000080 aa 64 33 bd 42 48 dc bb 1c 9a 1c 3c a2 db 6d bd
       -0.043797173 -0.006722481 0.009558227 -0.058070786
000090 ea 8d 9f bd 51 ee 9e bc 77 8e 9b bc d5 f8 29 bd
       -0.0779074 -0.019400747 -0.018988831 -0.04149707
0000a0 78 59 85 bc 66 47 a5 3c 95 7c 6b bc 52 3e 3a bd
       -0.016278014 0.020175647 -0.014372964 -0.04546959
0000b0 ef c1 b8 bc 10 b3 5f 3c 3a 2c 95 bb 9c f3 40 3a
       -0.022553412 0.013653532 -0.0045523914 0.00073605194
0000c0 60 48 de ba 36 6f 09 3d 10 a3 c9 bc 50 68 dd bc
       -0.0016958825 0.033553325 -0.024613887 -0.02702728
0000d0 50 61 d6 3c 28 e2 a7 3c 1c 91 d5 3c 18 c6 0e 3b
       0.02616945 0.020493582 0.02607017 0.0021785554
0000e0 06 bd d3 3b 89 23 38 bd f3 a6 0a bd f8 6f bc bc
       0.0064617423 -0.044955764 -0.03385062 -0.02300261
0000f0 e7 a7 73 bb 4d 2d a6 ba ef a7 2b 3c 80 da 0a 3d
       -0.0037178935 -0.0012678296 0.01047705 0.033899784
000100 e0 ad af 3c c2 78 7e 3b 3f c8 af bc dd 33 b7 bc
       0.021445215 0.0038829301 -0.02145779 -0.022363598
000110 94 cb 96 bc a9 3c 80 3c 81 64 2f 3d 4f 1c c2 3c
       -0.01840762 0.015653925 0.042820457 0.02369514
000120 8a d6 c1 3c 89 54 0f 3a 81 72 af bc 83 cc 1d bd
       0.02366187 0.0005467614 -0.021416904 -0.038525116
000130 67 ff 82 3c 03 a1 03 3d a8 28 92 3b 03 ec 4b bb
       0.015990926 0.032135975 0.004460413 -0.0031116016
000140 86 7c ea 3c 12 4c 0c bd 41 03 e9 bc e5 a4 28 3c
       0.02862383 -0.034252234 -0.028443934 0.01029322
000150 02 d6 85 3c 5e fa 5a bd 66 10 62 bd 5f 9b 90 bc
       0.016337398 -0.053461425 -0.05519142 -0.017652212
000160 b1 18 82 bd 62 a3 35 bd 54 e5 95 ba 53 8a 44 3c
       -0.06352366 -0.044345267 -0.0011436143 0.01199587
000170 84 c6 b4 bb 2e 6a 71 bd 32 dd 9b 3c 10 65 05 3d
       -0.005516829 -0.05893915 0.019026373 0.032567084
000180 d5 16 80 3b 59 94 3b 3c 57 c5 c0 3b 80 73 49 ba
       0.003908972 0.011448943 0.0058828997 -0.00076847523
000190 3f 11 8b bb 17 96 24 3d 77 5d 18 3d 79 86 4b 3b
       -0.0042439993 0.0401822 0.03719851 0.0031055494
0001a0 24 d8 bf 3c 94 ff a4 3b 22 56 0c bd a4 7f 8b 3a
       0.023418494 0.00503535 -0.03426183 0.0010642898
0001b0 04 e7 22 bc cb 40 58 bc 8a 7b ff bc b1 9e f5 bc
       -0.009942774 -0.013199042 -0.031186838 -0.029982897
0001c0 95 9f 61 3b c8 7b 35 3c 3a a5 8d bc 33 61 7d bc
       0.0034427394 0.011076875 -0.0172907 -0.015465069
0001d0 88 fa e6 bc e2 8e a9 bc 6e 12 24 3c 92 f4 0a bc
       -0.028195634 -0.020698015 0.01001416 -0.008481162
0001e0 97 13 fe bc 16 ff 9d ba 7a 0a 3d bc 94 3e 11 bd
       -0.0310152 -0.0012054171 -0.011538142 -0.03546007
0001f0 d6 98 c2 bb c1 5b 65 bc 89 10 a8 bc 69 4d 66 bd
       -0.0059386296 -0.013998927 -0.020515697 -0.056226168
000200 cd 85 de bc 5c 24 03 bc 18 c2 94 bb 79 1c 90 bc
       -0.02716341 -0.008004274 -0.0045397393 -0.017591702
000210 22 30 13 bb 61 0a 5b bd 44 f7 88 bd 9d 8d dc bc
       -0.002245911 -0.053476695 -0.06687787 -0.026922995
000220 fd e4 d4 bc 5b 08 d0 bc c8 4f 62 bb 2f 93 9d bc
       -0.025988096 -0.02539461 -0.0034532417 -0.019235222
000230 b3 16 da bc b7 6a f9 bc a4 89 25 bc a4 76 e9 3c
       -0.026622152 -0.030446393 -0.010103617 0.028498955
000240 d3 8c 01 3d ad f9 97 bc e7 17 89 3c e4 7c e0 bb
       0.03162844 -0.018551672 0.01673503 -0.0068508256
000250 80 07 cb 3b 66 1a f2 bb 2e 3a 44 3b 89 73 8d bc
       0.0061959624 -0.007388401 0.0029941904 -0.017267006
000260 0c 0a 43 bc cb 83 74 3c 6b 9d 88 bc 69 e7 6a bc
       -0.011904251 0.014924 -0.016676625 -0.014337399
000270 1b d0 13 3c 03 c8 41 bb 49 50 36 bc 83 ab ae bc
       0.009021784 -0.002956868 -0.01112754 -0.021322018
000280 53 99 30 3c 58 6e b3 3b ce fc c8 bb ee c5 90 bc
       0.010778743 0.0054758005 -0.0061336523 -0.017672505
000290 c6 5f b7 bc 6a 06 27 bc 92 91 51 3b a4 4e 8b bb
       -0.022384536 -0.0101944 0.0031977636 -0.004251318
0002a0 21 33 96 bc 90 d9 21 bc 3a 5c ab bc c0 0e 2b 3b
       -0.018334927 -0.009878531 -0.020918 0.002610132
0002b0 81 90 80 3b 70 15 97 3c e7 1f 2f 3b 94 da 4e bb
       0.003923476 0.01844284 0.0026721896 -0.0031563388
0002c0 fe 97 7e bc ee 9b b4 3a 0d de b0 bc 4f dd f4 3b
       -0.015539167 0.0013779381 -0.021590257 0.007472671
0002d0 73 03 fd 3c ec b1 ee 3c 31 90 04 bd 35 ea 1f bd
       0.030885434 0.029137574 -0.032364074 -0.039041717
0002e0 76 2e e7 ba d9 01 8e 39 b9 f9 f8 3b 5b 0f 47 3d
       -0.0017637748 0.00027085727 0.0075981286 0.04859863
0002f0 0e c4 29 3d 46 66 06 3c 01 82 79 bd 37 06 9d 3c
       0.041446738 0.008203095 -0.060914997 0.019168003
000300 da 2a 9f 3c 95 51 f4 ba 7e c8 df 3c 36 60 4f 3c
       0.019429613 -0.0018640036 0.027317282 0.012657216
000310 40 f0 1a 3c 3a 47 2b bc c1 3b c4 3b ad f4 15 3d
       0.009456694 -0.010453993 0.0059885685 0.036610294
000320 48 1a b3 bb 15 cd fa bc eb 1b ad 3c 72 d2 38 bd
       -0.0054657795 -0.030615369 0.021131476 -0.04512257
000330 f9 6f ff ba e1 13 87 3c cd 37 7a bb f8 5c 08 bd
       -0.0019488327 0.016488971 -0.0038180233 -0.033291787
000340 5f f6 3e ba 62 cd 07 3b 43 4a ab bc 6c 9b 54 bc
       -0.0007284637 0.0020721783 -0.020909434 -0.012976509
000350 c1 a2 58 bc be ed 06 bc 0b 22 c1 bc ca eb 34 3d
       -0.013222397 -0.008235393 -0.023575803 0.04417018
000360 4d 42 98 3c d9 1e 8b bb 15 2a 55 bc c6 3d 8d bb
       0.018586302 -0.0042456207 -0.013010521 -0.0043103425
000370 8c e6 61 bc f4 5b c6 bb 17 6c f5 3a a2 0a 42 bc
       -0.013787877 -0.006053442 0.001872423 -0.011843355
000380 31 b8 dd bb 89 9d cc bb ad f6 5e 3c 52 11 00 bd
       -0.006766342 -0.0062443656 0.013608617 -0.031266518
000390 5c e9 88 bc 1c aa 42 bc 33 f7 53 3b 63 e9 e0 bc
       -0.016712837 -0.011881378 0.0032343387 -0.027455037
0003a0 34 f3 3f bd de 55 70 bc 7e 2f 10 bc d7 f6 58 bc
       -0.046862796 -0.01466891 -0.0088003855 -0.013242445
0003b0 bd e3 06 ba 1c 01 ac 3b 0f 20 65 bc f0 4b 8e 3b
       -0.000514563 0.0052491557 -0.013984694 0.0043425485
0003c0 1d a9 00 3d 7f a0 d2 3c c9 14 f7 3c bf fe 1c 3c
       0.03141128 0.025711296 0.030161278 0.009582221
0003d0 8f 07 e7 3b 2f 4e 9c 3c 9c f4 81 3c 0f 0b 87 3b
       0.0070504616 0.01908025 0.01586371 0.0041211913
0003e0 13 4a 68 bc 34 c5 0e ba 28 ab 9e bb 58 84 5a bc
       -0.014177817 -0.00054462557 -0.0048421808 -0.013337217
0003f0 2c ac 28 3b 82 0d 1f 3c c5 f5 55 3c 6f a1 f2 3c
       0.0025737388 0.00970781 0.013059084 0.029617993

bias f4 [3]
000000 bc 00 8f bb ae d3 fb 3b c4 80 d9 bc
       -0.004364101 0.0076851463 -0.026550658
