fashion/model_weights.pth (torch, 126067 bytes, 20 tensors)

classifier.0.weight f4 [16, 1, 3, 3]
00000000: ca28 bbbc 5130 1f3d bec4 71bc f927 713d
00000010: 4664 3e3e 6eaa 7dbe c690 ef3d ef91 9e3d
00000020: ae90 46be 7642 023e 0aa2 98be 822a 663e
00000030: 1721 3cbe 604a 45be 6ff4 b73e 8cfd 86be
00000040: 46d6 cf3d 4722 063e 569e f53d 4d04 323e
00000050: 21e9 0b3c 7fdf 863e dbb4 2f3e 9a06 993e
00000060: 4b0d ee3d e700 4a3e 4897 f23d eecb 9d3e
00000070: 63ad 2cba 44bb c7be 4653 443e 98c2 11bc
00000080: 7efc dfbd 91f1 b73c 6c86 39bb 89b7 a7bc
00000090: 2d04 b23d e71e 8abe 3a5f 7dbd 6756 e03c
000000a0: 273f 3d3e 8c11 91be 9849 43bb aaea 3b3e
000000b0: 049f 68be 0481 55be 28e9 aebe e7ba 14be
000000c0: 95e3 e43d b8d4 ab3d d27e 44be 5a78 b43d
000000d0: ee98 603e 9085 b33e f051 243e 5a33 503e
000000e0: ee9d 8dbe 9757 0a3e 80a2 9c3e dab1 833e
000000f0: c52b 1bbe 7cf6 ca3d 4395 b13e 8ed8 49bd
00000100: f863 3c3d 68fb 25be b308 953e b7cf c7bd
00000110: f244 2cbe 4465 b83e bd9a cbbc 3c4b 40be
00000120: 67d6 efbd baa4 84bd e175 89bc 9bc5 353e
00000130: b7f7 ccbe 26a5 b63e 0a50 94be 1d88 583d
00000140: 3170 933e 183c 933c ef06 8c3e c738 1f3c
00000150: 5928 5bbd af25 6abe 3f8c 613e 0e7d a53e
00000160: 029d b4be f41e 41be 0008 9dbd 1154 79be
00000170: f630 c9be cde2 83bd e159 933e f6d2 9c3e
00000180: 3254 2b3e 9572 28bc 0f0f 9f3c 4d78 69be
00000190: dc94 d3bd 276c 9abe 90ca b5bd e285 3d3e
000001a0: 3ef2 7fbe 9f72 8fbe cd1c b63e 5567 c03e
000001b0: 4e71 e4bd cb00 12bd 320b 1b3e 69df 8bbe
000001c0: d289 da3e aa4f 1abe d097 5d3e 2e8b 293e
000001d0: fba7 c1be d5de 7abe 26cd 343e 7db2 4f3e
000001e0: 1d14 e8be a600 e3bd 1d75 623e bc03 31bd
000001f0: fe55 893d 2c19 5e3e 4be7 4a3e 9b3e e7bd
00000200: fb84 953e acaa 2c3e ca66 7f3e 0d2c 80bd
00000210: 6647 98bd 0761 ffbd 43b0 a9be cd4c 43bd
00000220: 0415 ebbd 262b 583c e25c 19be ccf9 cabe
00000230: bee9 a3be a991 163d 628e 81be 8c40 adbe
-0.022846598 0.038864437 -0.01475638 0.05887601 0.18592939 -0.24772045 0.11697535 0.077426784
-0.19391128 0.12720665 -0.29811126 0.22477153 -0.18371998 -0.19266653 0.35928676 -0.26365316
0.10148291 0.13099013 0.11993091 0.17384453 0.008539469 0.2634239 0.17158835 0.2988785
0.11623629 0.19726907 0.11845261 0.30819649 -0.0006587116 -0.3901006 0.19172391 -0.008896492
-0.10936831 0.022454055 -0.0028308881 -0.020473259 0.08692203 -0.26976702 -0.061858393 0.02738495
0.18481122 -0.283337 -0.0029798504 0.18351236 -0.2271691 -0.20849997 -0.3416226 -0.14524423
0.1117622 0.08390182 -0.19189003 0.08812018 0.21933338 0.35062838 0.16046882 0.20332089
-0.27659553 0.13509975 0.30592728 0.25721627 -0.15153416 0.099102944 0.3468419 -0.04927879
0.045993775 -0.16209185 0.291082 -0.09756415 -0.16823176 0.3601476 -0.024854058 -0.187787
-0.11710816 -0.064767316 -0.016779842 0.17751162 -0.4003274 0.35672873 -0.28967315 0.052864183
0.28796533 0.01797299 0.2734904 0.009718127 -0.053505275 -0.22865938 0.22026156 0.32321972
-0.35276037 -0.18859464 -0.076675415 -0.24348475 -0.39295167 -0.06439743 0.2877951 0.306297
0.16731337 -0.010281225 0.01941636 -0.22799797 -0.10331127 -0.3016064 -0.08876526 0.18508103
-0.24994752 -0.28017136 0.35568848 0.37578836 -0.11154424 -0.035645287 0.1514099 -0.27318886
0.42683274 -0.15069452 0.21639943 0.16556999 -0.3782347 -0.24499066 0.17656383 0.20282932
-0.45327845 -0.11084108 0.22114988 -0.043216452 0.06705855 0.2168929 0.19814794 -0.11291238
0.2920302 0.16861981 0.24941555 -0.06258402 -0.07435493 -0.12469678 -0.3314229 -0.047680665
-0.11478618 0.013193881 -0.14976838 -0.39643705 -0.3201427 0.036760006 -0.25303942 -0.33838308

classifier.0.bias f4 [16]
00000000: faa9 34be 0427 60be 2893 8f3d e6c5 c63d
00000010: 0a66 f9bd 7c85 98be 16e7 74bd 47ba 683e
00000020: acc6 543d cd88 8b3b bd1d 0fbe 9e79 063e
00000030: 2edb 6d3e 8699 11bd e5ba 91be af80 6abd
-0.17642966 -0.21889883 0.0701049 0.09705715 -0.121776655 -0.2978934 -0.059790693 0.22727309
0.05194728 0.0042582513 -0.13976188 0.13132331 0.23228142 -0.035546802 -0.28462902 -0.05725163

classifier.1.weight f4 [16]
00000000: 2594 923f 5440 9f3f c388 6f3f df1e 873f
00000010: b394 753f d06e 813f 198d 7d3f bd3f 803f
00000020: 5cf2 913f be99 943f 66c7 8a3f d82c 773f
00000030: 0738 8c3f 49a9 873f e9ed 823f 4c59 813f
1.145146 1.2441506 0.93568057 1.0556296 0.9593002 1.0111942 0.9904342 1.0019451
1.1402087 1.1609418 1.0842102 0.965528 1.0954598 1.0598537 1.0228854 1.0105376

classifier.1.bias f4 [16]
00000000: b023 d1bc a64e 2dbb f431 ccbe a9b1 8a3b
00000010: 39ec 87be 6f78 1abe e000 a6be 11b7 a0bd
00000020: aacb 5c3b 2ddb abbc 4750 07be a8b4 91be
00000030: 952f 1abd 206d 243d 1b75 9abe 1285 babe
-0.025529712 -0.0026444583 -0.3988186 0.0042326045 -0.2654741 -0.15085004 -0.32422543 -0.07847417
0.003369073 -0.020978535 -0.13214217 -0.28458142 -0.037643034 0.040143132 -0.3016747 -0.3642965

classifier.1.running_mean f4 [16]
00000000: 194b 2ebe d02c 5fbe 9c54 743e 4648 c93d
00000010: d3a0 47bd 0547 a4be 4c8d 1e3d 758b 523e
00000020: e27c 6b3d d013 823b 7f4f 18be 5b6f 243e
00000030: b010 6b3e 8106 2fbd 8c54 54be 5d34 d73d
-0.17020835 -0.21794438 0.23860401 0.09828238 -0.04873736 -0.32085434 0.03870897 0.20561011
0.057492144 0.003969647 -0.14874075 0.16058104 0.22955585 -0.042730812 -0.20735377 0.105080344

classifier.1.running_var f4 [16]
00000000: 377f cc3c b652 a83d ceaa 913f 2a37 7b3d
00000010: 6bfb bd3d 163c bb3d 240b 133f b8b0 ac3d
00000020: 537f 8b3d c14c fc3c 88f6 603d d8c6 123e
00000030: 204e 0e3d 6c32 fb3d b5c0 973d 522b 893f
0.024963005 0.08218901 1.138025 0.061331905 0.0927647 0.0914232 0.57438874 0.08432144
0.068113945 0.030798318 0.05492261 0.14333665 0.034742475 0.122654766 0.07409803 1.0716345

classifier.5.weight f4 [32, 16, 3, 3]
00000000: 0a00 66bc dcec 663d e9fd 0c3d e4f1 193e
00000010: 425e 563c 18f6 47bd fc59 893b 81c7 aa3d
00000020: 4957 f53c 3a42 84ba 659e a3bc 0e3a 933c
00000030: fd60 c4bd 60a4 c5bc 8f8c dd3c 7f7e 90bd
00000040: 2e04 c8bd 535a be3d 1b69 453d d4e6 073d
00000050: ad32 25bd 8cdd 843d 1beb 86bc f56b 32bd
00000060: 2528 bfbd 7356 12be 85ba 0bbe 5cd6 bd3d
00000070: 333b 833c cc10 0a3c 4815 d63d 73bc 27bc
00000080: 1f36 173d d13a 383c 3ed8 9abc 1a09 04be
00000090: e2d4 16be eed9 f4bd 50b3 25bd 5666 48be
000000a0: bf85 12bd 93ad 253c 7277 623d a70d 293d
000000b0: 6e87 af3d 15c9 19bd fdec 4dbd 333a 04be
000000c0: 64cd 7ebe ef0e 09be 623f 77bd ccf5 cbbd
000000d0: d007 f43c 1b66 f73b 509f f7bb bd56 a83c
000000e0: c08f 333d 0c45 ba3c 53c8 41bd 802c 9cbd
000000f0: 5192 a7bd 22fb b1bd 8ee7 0bbe 36c9 a2bd
00000100: e783 f2bd 3fe9 c7bd bf5a a5bd 3d32 0dbd
00000110: 7590 26bd b89c 7fba 85e0 643c dafe fcbc
00000120: 201c 81bd 5183 80bd 5af1 82bd 55f5 17be
00000130: 2737 9abc 7d07 22bd 7452 163d 05a6 0abe
00000140: 5a55 b0bc 5026 24bd 6b64 b7bd 6929 dc3d
00000150: 9711 a63c 444b c03d 585b c83c 94ad 0b3e
00000160: 1cc9 fa3b d2f0 1d3d 756a 95bc 9068 87bd
00000170: fc1e 4dbb 5beb 0a3e 244d 4fbd 8049 01be
00000180: be97 59bc 6dc0 40bc 4b82 07be 1d42 c0bd
00000190: b398 2cbe acef babd 9fc2 2ebe 91d6 0ebe
000001a0: 7479 c4bd 877e c3bd 8f18 90bd cec0 bebb
000001b0: aaf9 6c3b 2b12 f03c 52da b9bd 3cc7 bdbc
000001c0: 5019 7e3d 5134 d1bd c9f8 6cbd f33f f83c
000001d0: f7c0 1dbd 9730 b33d d419 a33d 5d01 85bd
000001e0: 2624 a1bd 04e3 e4bd c380 343c 490a 91bd
000001f0: 04d4 78bd 36a3 c13c 8849 18bd f129 653d
00000200: e0f1 74bd 6a98 4b3e 8636 d13d da0d 25bd
00000210: 641b e83b 33e6 be3c a0e2 e9bd 1e87 c4bd
00000220: e569 20be ed99 94bd fb60 babd 33b1 273c
00000230: 8aa4 033d 7521 f53d 8a81 1f3e 3319 453e
00000240: 6b03 f0bd 683c 38be 6fd7 863d cf12 eabd
00000250: ccb3 edbe bd3a cabd e480 9bbc b696 bdbe
00000260: d3c5 27bd 1581 26bd 6034 2c3d 0928 e23c
00000270: ea90 10bd 5950 83be 7d41 9cbc ead3 abbd
00000280: 711e a7be 29b8 0d3d a275 c53d 7b6b ea3d
00000290: fb00 253c 5ebc 073d 3bfc be3c 64e6 823d
000002a0: 2ee9 6d3c 5181 9b3d b09e db3d e675 e7bc
000002b0: b1d2 f03d 424d 103e 03bf 93bd c076 dcbd
000002c0: af9c ef3c 6b8a 603c 3137 abbe 75d7 bfbb
000002d0: 20b8 9ebd bce1 79bd fd32 09bd 8a8d 07bb
000002e0: 38ee 6ebd 1baa 903d 8a40 d03d 99ab 343d
000002f0: d11b 083e 1e78 b0bb 9ce2 133c e085 5dbd
00000300: 4997 1bbd 13f8 933c 9b8d 0eba 37a4 893d
00000310: fb5c a43d ca4f 543d 28c0 af3d 2494 f73c
00000320: 6120 503d b0d1 4e3d 8871 2dbd bcc6 1ebc
00000330: 8ba0 203d 647e a83c 4b4c 523c 5a2d 9e3c
00000340: 6075 a8bd f3dd 47bb b49d 5abc 7b8d 10be
00000350: 2e75 a6bd 65d0 f43d 2841 c43d 6677 8e3d
00000360: 0ceb 6abd 6196 25bd d29d 87bb 5e22 05be
00000370: c050 9fbe d18b d2bd efdb cfbd b73b 8dbe
00000380: bd26 c8bc f0d9 0a3d 9d0f 573d 463d 9bbd
00000390: e510 993d c22a e53a 225f 40bd 2234 5fbb
000003a0: 9a06 3abd 9b21 44bd ac14 8c3d bf15 3c3e
000003b0: 9a11 9bbc c003 513d 1006 fc3d 7a7f ccbc
000003c0: ee6b 2d3d 0f9a 553d 5d15 cfbc 94e4 3dbd
000003d0: b231 5bbd eb1e 06be d9dc a93b 8fe9 e1bd
000003e0: 9127 d6bd 8bfa 16bd a837 713d 2503 24bd
000003f0: 80b0 0dbe 901e 6d3d abee 103e 4350 17be
-0.014038095 0.05637823 0.034421835 0.1503368 0.013083996 -0.048818678 0.004191635 0.083388336
0.029948847 -0.0010090538 -0.01997299 0.017972019 -0.095888115 -0.024126232 0.027044563 -0.07055377
-0.09766422 0.09294572 0.04819594 0.03317912 -0.04033153 0.06487569 -0.016469529 -0.043559987
-0.09333829 -0.1429079 -0.1364537 0.092694014 0.01601944 0.008426856 0.10453278 -0.010237801
0.03691685 0.011244492 -0.01890194 -0.12894097 -0.14729646 -0.11955629 -0.04045421 -0.19570288
-0.03577208 0.010112184 0.055289693 0.041272786 0.08570753 -0.037545282 -0.050274838 -0.12912826
-0.24883038 -0.13384603 -0.06036318 -0.099589914 0.029788882 0.0075500137 -0.0075568333 0.020549173
0.043838263 0.022738002 -0.047310185 -0.07625675 -0.081822045 -0.08690478 -0.1366255 -0.07948534
-0.118415646 -0.09761285 -0.08073949 -0.03447174 -0.04066511 -0.0009750831 0.013969545 -0.030883241
-0.063041925 -0.062750466 -0.063936904 -0.1483968 -0.018825127 -0.039557923 0.036699727 -0.13539894
-0.021525074 -0.0400756 -0.089547 0.10750086 0.02027206 0.09389356 0.024457619 0.13640434
0.0076533686 0.038559742 -0.01823924 -0.066117406 -0.0031298986 0.13566343 -0.050610676 -0.12625694
-0.013280807 -0.011764628 -0.13233297 -0.0938761 -0.16855125 -0.09127745 -0.1706643 -0.13949038
-0.09593478 -0.095456176 -0.07035934 -0.005821324 0.0036159554 0.029305538 -0.090748444 -0.023166291
0.06203586 -0.10215057 -0.057854448 0.03030393 -0.038514104 0.08749502 0.07963911 -0.06494401
-0.07868223 -0.11176112 0.011017027 -0.0708204 -0.06074907 0.023637395 -0.0371795 0.0559482
-0.059800982 0.1988236 0.10215478 -0.040296413 0.0070833433 0.023303127 -0.114201784 -0.09596084
-0.15665396 -0.072559215 -0.09100529 0.010235119 0.03213934 0.11969272 0.15576759 0.19247894
-0.11719402 -0.17991793 0.065840594 -0.11429369 -0.46426237 -0.09874485 -0.018982358 -0.37029046
-0.040960144 -0.040650446 0.042042136 0.02760698 -0.03529445 -0.25647238 -0.019074196 -0.08390029
-0.32640412 0.034599457 0.09641577 0.114462815 0.010071035 0.033138625 0.023313632 0.063916
0.014520926 0.075930245 0.107236266 -0.02825446 0.11758936 0.14091972 -0.07214167 -0.10764837
0.029249517 0.013704876 -0.33440545 -0.005854542 -0.07749963 -0.061006293 -0.03349589 -0.002068373
-0.05833265 0.07063695 0.1016856 0.04410896 0.13291861 -0.005385413 0.009026196 -0.05408275
-0.037986074 0.018062627 -0.0005437971 0.067207746 0.08025547 0.051833905 0.08581573 0.030222006
0.05081213 0.050492942 -0.0423446 -0.009690937 0.039215606 0.02056808 0.0128355725 0.019308735
-0.082255125 -0.0030497282 -0.013343263 -0.1411647 -0.08127819 0.119538106 0.0958274 0.06956367
-0.057353064 -0.040426616 -0.0041386867 -0.13001391 -0.31116295 -0.10280574 -0.10149371 -0.2758462
-0.024432534 0.033899248 0.052505124 -0.07580046 0.074739255 0.0017484056 -0.046965726 -0.0034058173
-0.045416452 -0.04788361 0.0683988 0.1836767 -0.018929292 0.051028967 0.12305844 -0.02496313
0.042339258 0.052148875 -0.025278741 -0.046360567 -0.05351419 -0.13097732 0.005183798 -0.11030876
-0.104567654 -0.03686003 0.05889097 -0.04004206 -0.1383686 0.057890475 0.14153545 -0.14776711

classifier.5.bias f4 [32]
00000000: 6a8e 643d f8f2 da3c 5636 d4bc dbdc a4bc
00000010: 2499 b73c 67df 9a3a 5193 943d fa70 673d
00000020: e152 d73d 37a6 52bd fab9 933c 2cf4 fabb
00000030: 0752 a6bc f7f4 633d f175 e03d b826 cc3d
00000040: d024 50bd df9e 84bd c2a4 a13d 52ac ff3c
00000050: 7529 223d c1b8 2a3d 9380 3c3d 4866 893d
00000060: b743 6e3c 24fa 6dbd aa05 4bbd 115a 143d
00000070: e45f e13d 9ffb a53d df0a 71bc 294c 89bc
0.05579988 0.026727185 -0.025904816 -0.020124843 0.02241189 0.0011815847 0.07254661 0.056504227
0.10513855 -0.051428046 0.018033016 -0.007658502 -0.020302786 0.05565354 0.109599955 0.099683225
-0.050816357 -0.06475615 0.07892753 0.031210098 0.039590318 0.0416801 0.046021055 0.06708962
0.014542512 -0.05809988 -0.04956595 0.036218707 0.11004618 0.081046335 -0.0147120645 -0.016759949

classifier.6.weight f4 [32]
00000000: c45c 873f fa62 9f3f b65c 6b3f 7567 893f
00000010: fc7a 833f a0dd 803f 719e 9f3f fb2f 643f
00000020: 2415 803f bae0 943f b9ab 843f 0a24 823f
00000030: f95f 823f 3ca7 7a3f 2d26 823f cb74 753f
00000040: 4e64 803f b166 883f 2c1b 873f 5694 7e3f
00000050: 1aee 843f 1e0e 813f 43c9 6f3f aea6 803f
00000060: 0bb1 893f e8ab 833f 22cb 693f 8d55 863f
00000070: 6fea 793f 232a 853f 4cd8 803f 7b69 a63f
1.0575185 1.245208 0.9193834 1.0734698 1.0271907 1.0067635 1.2470227 0.8913571
1.0006452 1.1631081 1.0364906 1.0167248 1.0185539 0.9791143 1.01679 0.95881337
1.003061 1.0656339 1.0555167 0.9944509 1.0385163 1.0082433 0.93666476 1.0050867
1.0757154 1.0286837 0.9132558 1.0494858 0.9762334 1.0403484 1.0066009 1.300094

classifier.6.bias f4 [32]
00000000: b0ce 8bbe 71ae 8cbe a94b 39be dd55 93be
00000010: aeb4 b2be e953 90be 663f 9fbe 8610 3dbe
00000020: 5c41 1cbe c3d7 92be cda5 97be 8c0a a7be
00000030: ee18 debd fd4e d2bd 3f76 58be 4c7b babd
00000040: aa8f 9cbe e96c 57be f45d a3be 9870 09be
00000050: 24b6 8dbe 0e1f 6cbe 7864 79be 638a 7fbe
00000060: 264d 50be a6b5 a7be 2909 53be aeb6 15be
00000070: 3a49 2ebe 432a 2abe 5991 82be a831 a9be
-0.27306128 -0.27476838 -0.18095268 -0.28776446 -0.34903473 -0.28189018 -0.31103057 -0.18463334
-0.15259308 -0.28680238 -0.29618683 -0.32625234 -0.10844599 -0.10268972 -0.21138857 -0.09105548
-0.30578357 -0.2103764 -0.31907618 -0.13421857 -0.27678025 -0.23058721 -0.24354732 -0.24955134
-0.2034193 -0.32755774 -0.20608963 -0.14620468 -0.17020121 -0.16617684 -0.25501516 -0.33045697

classifier.6.running_mean f4 [32]
00000000: a1f9 48bf 6c2a 3dbf b778 943e 1506 4ebf
00000010: 4a49 cbbe f74a 81bf e66e dfbf 2992 bdbe
00000020: 2da3 b6be 2d5d 8cbf a963 7d3e d7f8 05bf
00000030: e453 bdbe ca83 8ebd aa8f c83e 376d 36bf
00000040: f477 e6be 7d93 dfbe a1f8 2cbe d3c6 09bf
00000050: 4870 0bbf 8546 30bf b0ae e1bd 8d70 e0be
00000060: bc51 14bf bd4f 3fbd 795a a53e 88c8 63bf
00000070: 108e ca3d 86b2 26bf 780c e2bd b837 0cc0
-0.78505903 -0.73892856 0.28998348 -0.8047803 -0.39704353 -1.0101002 -1.7455719 -0.37025574
-0.35671368 -1.0965935 0.24745049 -0.52332824 -0.36978066 -0.069587305 0.39172107 -0.712604
-0.45013392 -0.43667212 -0.1689172 -0.53819007 -0.544682 -0.68857604 -0.11019647 -0.4383587
-0.57937217 -0.046706904 0.32295588 -0.8897786 0.098903775 -0.65116155 -0.110375345 -2.1909008

classifier.6.running_var f4 [32]
00000000: 5655 863f cf07 913f 5db2 bd3e 2142 603f
00000010: 9c20 0d3f 4778 123f c10b 953f a0b7 463f
00000020: 1c0a 773f 69bc a43f 38d5 283f 5754 a93f
00000030: 4fc5 513f 2a8e 2a3f a3e2 e63e a091 083f
00000040: d3bc 6a3f f109 913f 1815 453f f9c9 183f
00000050: d5cd bd3f 1029 8c3f f089 233f 1297 7e3f
00000060: c7d5 6b3f 578d 483f 8747 fc3e e895 443f
00000070: aa9d 453f 8367 a73f c842 1d3f 3f74 2440
1.0494792 1.1330508 0.37050143 0.87600905 0.5512788 0.5721478 1.1644212 0.7762394
0.964998 1.2869998 0.65950346 1.3228863 0.81941694 0.66623175 0.45094785 0.53347206
0.9169437 1.1331159 0.7698531 0.59683186 1.482844 1.0950031 0.6388235 0.99449265
0.92123073 0.7834067 0.4927332 0.7679124 0.771937 1.3078464 0.61430025 2.569595

classifier.10.weight f4 [64, 32, 3, 3]
00000000: cd98 143d 5560 75bd ba38 9cbc cfe2 173c
00000010: 2e48 90bb 9c34 ddbb e86c d3bc 1721 3b3d
00000020: 98c4 a6bd 5796 803d cef8 fd3d d810 ba3d
00000030: 26a7 7f3d 9f73 f3bd 2bc9 753b 836a 02bd
00000040: 8b60 0dbe 2cae be3c 7565 e8bc ef63 89bc
00000050: 3e6f 61bd bfbd 6abd 9ba0 bd3d d59b 07bd
00000060: e013 d73a fa1e 85bd c1b7 723d 7779 75bd
00000070: fd6a 743d f8b4 c3bc b83c c3bd 6f81 2cbd
00000080: a0dc 5bbb ab9f 933c 4847 49bd 2766 d43d
00000090: 173b bebd 5f2d eabc 6953 863c 0e02 823c
000000a0: 6034 a33c 0c6a cebb f912 d93d 1fd4 36bc
000000b0: 5786 99bd 2b8d de3d cdc6 62bd 18d7 8f3d
000000c0: 2805 2f3c 2192 0fbc 923d f2bd 48fa 0d3d
000000d0: 6374 153d 2bba dabc 6cd2 763e fb94 293e
000000e0: 94a0 b03c 8d07 183e b714 9fbd 0330 0a3c
000000f0: 9e04 64bd 8043 2bbe 553c 40bb d3df dabc
00000100: d998 533b bfbb a9bd 0ee5 0bbd e7bd 163d
00000110: 9029 e1bd fe6b c0bd e29a 473d 4ffc 40bd
00000120: b3b6 d53d b60e a1bd 7d4c cd3c 0df4 03bd
00000130: 1427 4f3d a816 b1bd 17b1 2bbd 1ede 2f3d
00000140: 1a8c c23c 4183 f33c 8558 fc3d d636 8b3d
00000150: 6eba bbbc 157b 0c3b 07f7 a03d d992 32bb
00000160: 2fcd 3fbe 6be6 01be 6467 84bd 4d2a 0b3c
00000170: a3b7 cd3d 7212 0ebd 7ffa 033b 106f 3cbd
00000180: b3c7 86bc 5066 fe3c 4484 cc3c 5f81 c83d
00000190: bc54 fabb 31c8 f1b9 c131 2b3b d6b0 613d
000001a0: fac8 393d 35e4 573d 16cd a3bb 4a21 c8bb
000001b0: fc5e 393d ea1c f7bc e0d3 2fbd 9d3d d43d
000001c0: a729 dfbd 3a53 8e3d e106 b6bc 808c 20bd
000001d0: ab53 183b 3b66 2ebd bfda 14bc a220 50bd
000001e0: f766 7a3d e53f 1ebd 29b1 03bd aec8 a9bd
000001f0: 351d c43b de5a 0a3d b52a 39bd 4144 3c3d
00000200: d0dc 2fbb b7c1 9bbd 46d2 96bd fd2f e43c
00000210: 7b46 423c 1d9c 943d 1b1a 4e3c ff1b b93d
00000220: bc97 663c 39c3 5c3c d3b3 003e f101 c7bc
00000230: 6552 92bd 21d6 84bd 48b6 18bd 6188 d3bd
00000240: 7345 87bd 5344 ebbc 304e 8a3d 0f40 a2bc
00000250: ba2f 333d c66c 883d 1868 8c3d 3aa0 a0bc
00000260: 3f74 8e3d ac7c 01bd 9e48 fabc eab0 033d
00000270: a121 f8bc a46d 0ebd 216e 4fbc 50e4 d53c
00000280: 0f98 04be f2a2 38bb 2d32 853c 5eba 35bd
00000290: 0597 81bd 68cc 3e3d bf3a b4bd 8935 84bc
000002a0: 35e8 0dbd 0314 173e cfcd c43d 7d19 1f3e
000002b0: 2cbc 6cbd 4830 37bd 2b9b a23c a9d3 3ebd
000002c0: f863 95bd 70d4 82bc 9530 c63c fbaf 46bb
000002d0: 9918 6dbc 95de d5bd 2a1f 5bbd 5696 41bd
000002e0: 8186 093c de1a 243d 1833 a93d 5290 1fba
000002f0: 4b0d 463b 8de6 c9bd 321c b33d 43ff 903d
00000300: 2802 89bd 477f 153e 2a80 c7bd d9e7 1fbb
00000310: 66d6 79bd 2085 96bd 36c7 8b3d ce84 cebd
00000320: bf56 78bd ab16 64bd f713 b1bd 5429 41bd
00000330: 8613 ddbd bc8e 053d 6068 bc3c c97c 853d
00000340: 5408 b2bd b3b0 32bd 33b7 47bd 9d5b af3c
00000350: 7abd c43c c1fc 953d f41c bd3d 60a5 0f3d
00000360: 59f9 f2bc 2fa4 03bd faab 223d 39bd d13c
00000370: 41eb 0dbd 2913 96bd 04f3 583c 938f bd3c
00000380: 2068 c0bd 1b29 553d 06e7 613d 1f4b aabc
00000390: 2598 0fbc dc11 6b3d 840a 4d3c eb8e 0d3d
000003a0: 2959 af3d a4b6 293e e81f 0a3a ef46 74bd
000003b0: 85f4 6c3d 0e42 4fbb e282 af3c c198 08bc
000003c0: f44b d6bc 4a18 24bb f1f3 c6bd 8bc5 313d
000003d0: c3b7 57bb e5e3 8cba 46f8 b23d b991 893d
000003e0: 0f44 e33a 53e9 a73c 3418 64bd eb9c e5bd
000003f0: 247f 67bd a224 f8bd 077b f9bb a80d 3bbd
0.036278535 -0.059906323 -0.019070018 0.009270384 -0.0044031357 -0.0067506563 -0.025808766 0.045685854
-0.08142966 0.06278675 0.12400971 0.09085244 0.062415265 -0.11887287 0.0037503939 -0.03183986
-0.1380636 0.023276411 -0.028368691 -0.016771285 -0.05503773 -0.057309862 0.09259149 -0.033107597
0.0016409121 -0.06500049 0.059257273 -0.05993029 0.059672344 -0.023890004 -0.095330656 -0.042115625
-0.003354825 0.018020472 -0.049140245 0.103710465 -0.09288614 -0.028586088 0.016397195 0.01587012
0.019922435 -0.006299263 0.10599322 -0.011158972 -0.074963264 0.108667694 -0.055365372 0.07023448
0.010682382 -0.008762867 -0.1182815 0.034662515 0.03648795 -0.0267001 0.24103707 0.16560738
0.021560945 0.1484663 -0.07767623 0.008434298 -0.055668466 -0.16724968 -0.0029332836 -0.026718056
0.003228715 -0.08287763 -0.03415399 0.0368022 -0.109942555 -0.09395598 0.048731692 -0.04711562
0.10435238 -0.07864134 0.025060887 -0.032215167 0.050574377 -0.086468995 -0.041916933 0.042936437
0.023748446 0.029725673 0.12321571 0.067975685 -0.022916045 0.0021435667 0.07859617 -0.0027248173
-0.18730615 -0.12685554 -0.06465033 0.008493972 0.100447915 -0.03468556 0.002013832 -0.046004355
-0.016452646 0.031054646 0.024965413 0.097903006 -0.0076394957 -0.00046116256 0.0026122185 0.055100285
0.04535768 0.05270787 -0.0049988134 -0.006107484 0.0452566 -0.030165154 -0.04292667 0.10363314
-0.108966164 0.06949468 -0.022220077 -0.03919649 0.002324323 -0.042577963 -0.009085356 -0.05081237
0.06113335 -0.038635153 -0.032151375 -0.0829023 0.005984927 0.033778064 -0.045206744 0.04596353
-0.0026834495 -0.076053075 -0.07364325 0.027854914 0.011857624 0.07256339 0.012579466 0.09038543
0.014074262 0.013474279 0.12568597 -0.024292918 -0.07144622 -0.06486154 -0.037283212 -0.103287466
-0.06605043 -0.028719103 0.06753194 -0.019805936 0.043746687 0.06661372 0.06855792 -0.019607652
0.06955766 -0.031613037 -0.030552205 0.03215114 -0.030289473 -0.03477253 -0.012660534 0.026109844
-0.12948631 -0.0028173295 0.016259277 -0.044367187 -0.06327633 0.046581656 -0.088002674 -0.016138809
-0.034645278 0.14753728 0.096095674 0.15537067 -0.057796642 -0.04472378 0.01984938 -0.046588574
-0.07294458 -0.015970439 0.024193088 -0.0030317295 -0.014471197 -0.10442845 -0.053496517 -0.047262512
0.008393885 0.040064685 0.082616985 -0.0006086874 0.0030220326 -0.09858427 0.08745612 0.07079937
-0.066898644 0.14599334 -0.09741242 -0.0024399667 -0.060995482 -0.0734961 0.06825106 -0.10083924
-0.060629603 -0.05568568 -0.08646386 -0.047158554 -0.107947394 0.032606825 0.022998989 0.065179415
-0.08692995 -0.043625545 -0.048758697 0.02140599 0.02401613 0.073235996 0.09234038 0.035069823
-0.029659914 -0.032139 0.03971479 0.025602924 -0.034648184 -0.07327873 0.013241533 0.02313975
-0.0939486 0.052041154 0.05515196 -0.020787774 -0.008764301 0.05739008 0.012514714 0.034560125
0.08561928 0.16573578 0.00052690366 -0.05963796 0.05785038 -0.0031625065 0.021424714 -0.008337201
-0.026159264 -0.0025038891 -0.09714497 0.043401282 -0.0032915927 -0.001074907 0.08738761 0.067172475
0.0017339009 0.020497 -0.055687144 -0.1121157 -0.056517735 -0.12116362 -0.007613543 -0.04566732

classifier.10.bias f4 [64]
00000000: 4a86 74ba 84b9 1c3d 4adc b5bb 1a5e 433d
00000010: aeae 093d 13a9 65bd 54d9 da3b d26a 633d
00000020: 43e9 d73c e366 353d dd3a f83d 2506 f5bc
00000030: 5960 1d3d aef2 8c3d 01ee a63d b3da 173c
00000040: 9f5d f3bc 3aaf 213c 3121 3e3d 079d d9bc
00000050: 4910 c1bc 5140 463b c364 04bc 1816 f23c
00000060: f85a 8ebc d395 e7bc 626d e7bc e29c 373d
00000070: 4ba7 aa3c bbb0 3dbc 1a21 483d 85e6 653d
00000080: bf4c 673d a9c7 6f3d 0331 cd3d 72fb 08bc
00000090: aff4 43bd eb21 7a3c 6e04 373b d70f b23d
000000a0: e672 7e3d 0915 2d3d 19ff 053c 5c63 e93c
000000b0: 5852 183c 72b1 7abc 428b 7a3d 2605 b63c
000000c0: 3a6b c3bc e71e 933c 35ee 703c 554d 13bb
000000d0: ee03 a5bb e024 b63c 6ffd 64bc e5c7 6d3d
000000e0: e5dc 953d ba37 463d 7aa2 5fbc 30b9 983d
000000f0: 6b59 ee3c 572b 003d a30d a3bd 4f69 a3bc
-0.0009327872 0.03826286 -0.005549942 0.047697164 0.033613853 -0.056069445 0.0066787396 0.055521794
0.026356345 0.044287574 0.12120602 -0.029910157 0.038421962 0.06882225 0.081508644 0.009268451
-0.029707728 0.009868437 0.046418373 -0.026564134 -0.023567336 0.0030250738 -0.008080664 0.02955155
-0.017377362 -0.028269684 -0.0282504 0.04482735 0.020831725 -0.01157778 0.048859693 0.056128044
0.056469675 0.05854002 0.10019114 -0.0083607305 -0.04784077 0.015266876 0.0027926224 0.086944275
0.062121294 0.04225639 0.008178496 0.028489761 0.009296976 -0.015301095 0.061167963 0.022219252
-0.02385484 0.017959071 0.0147052305 -0.0022476513 -0.005035869 0.02223438 -0.013976439 0.058051962
0.07317523 0.04839299 -0.013649577 0.07457197 0.029095372 0.031291332 -0.079615854 -0.019947676

classifier.11.weight f4 [64]
00000000: 99d5 963f 0c1d a03f d9b1 903f dda6 9c3f
00000010: cec3 933f 09df 963f 70d1 933f b8f9 983f
00000020: 4531 983f afcf 943f 2165 9a3f a1f5 8e3f
00000030: fdb0 a13f e2b5 9c3f 13be 8d3f 1c28 973f
00000040: e3c2 ab3f 892e 953f d55a 963f 8bc4 973f
00000050: 4ee2 8d3f 1445 923f 2092 9d3f f7a7 9b3f
00000060: 51e0 9f3f 6375 8f3f 6d57 943f d559 9a3f
00000070: a237 983f 152b 973f e872 a13f 12cf 913f
00000080: 53dd 913f 3233 a23f adbd 9d3f 7e37 943f
00000090: 4c51 923f b5e7 9f3f bc05 9b3f b429 923f
000000a0: 484a 9c3f 32d5 9b3f dd18 913f 43aa 973f
000000b0: b92a 923f 7baf 903f a7be 953f 8d35 983f
000000c0: eb6d 943f b9d4 983f 6c71 993f b34c 953f
000000d0: 7a1a a63f 0039 9f3f befe 993f db42 a43f
000000e0: be9f 953f ad5e 923f f2ab 9d3f f584 973f
000000f0: 51d7 9b3f cc94 953f c98e 953f 8ef8 8e3f
1.1783935 1.2508864 1.1304275 1.2238423 1.154413 1.1786815 1.154829 1.1951208
1.1890036 1.162588 1.2062112 1.116871 1.2632138 1.2243006 1.1073631 1.1809115
1.341885 1.1654826 1.174647 1.1856855 1.1084688 1.1427331 1.2310219 1.2160634
1.2490331 1.1207699 1.158918 1.2058665 1.1891978 1.1810023 1.2613192 1.1391318
1.1395668 1.2671874 1.232351 1.1579435 1.143106 1.2492586 1.2111125 1.1418977
1.2210169 1.2174437 1.1335713 1.1848835 1.1419288 1.1303552 1.1698807 1.1891342
1.1596044 1.1939918 1.1987739 1.1664032 1.297683 1.243927 1.2030866 1.2832903
1.1689374 1.1435143 1.2318099 1.183745 1.2175084 1.1686034 1.16842 1.1169603

classifier.11.bias f4 [64]
00000000: ccb4 5ebd 2c2f 8abd 30b0 8ebd 0b32 26bd
00000010: 8752 49bd 0341 ebbd d584 4fbd 949e e9bd
00000020: b053 9abd 1efb e7bc 530f 033c 7698 e0bc
00000030: 84e3 c6bc 4d8d 35bd 92c6 8dbc f8de a8bd
00000040: c4dc 92bd 724a 9abd 3f77 87bd 6552 95bd
00000050: 841f 5abd 28b2 cb3c 8c9f 88bd d627 edbc
00000060: 4ea6 e0bd 78cd 9fbd 1ca5 4d3c 3cdb 3cbd
00000070: 59c9 66bd ad33 86bd a725 56bd 1106 8abd
00000080: 2b57 5fbd e35a 85bd 6f2c cabc f38e 01bd
00000090: a5be 5cbd eba6 92bd d403 b6bd 2f48 7ebb
000000a0: a441 a4bd fd63 b0bd d698 40bd f1bf dcbc
000000b0: 972c b1bd 9e5a 80bd e692 60bd 3955 edbd
000000c0: bda2 4fbd 9965 9ebd 9202 c03c fe67 a5bb
000000d0: 8b87 f3bd 704d 18bd a9be b1bc 6881 3cbd
000000e0: 05f6 14bb 9afb 2abd 159a 433d e489 fabc
000000f0: 3acb 2ebd 4f49 52bd fe0d e1bd cad1 9bbd
-0.05437164 -0.067472786 -0.06967199 -0.04057507 -0.04915097 -0.114870094 -0.050663788 -0.114071995
-0.075354934 -0.028317984 0.007999259 -0.027416449 -0.02427841 -0.044324208 -0.0173066 -0.08245653
-0.07171014 -0.075337306 -0.06614541 -0.07291106 -0.053252712 0.024865225 -0.06671056 -0.02894966
-0.1096922 -0.07802862 0.012551572 -0.046107516 -0.056344364 -0.06552825 -0.052282 -0.06739438
-0.05452649 -0.06511476 -0.02467939 -0.031630468 -0.05389275 -0.07160743 -0.08887449 -0.003880035
-0.080203325 -0.08612821 -0.047020756 -0.026946994 -0.08651083 -0.06267284 -0.054827593 -0.115885206
-0.05069231 -0.07734222 0.023438726 -0.005047797 -0.11891087 -0.037183225 -0.02169736 -0.04602185
-0.0022729647 -0.041743852 0.047754366 -0.03058333 -0.04267428 -0.051339444 -0.10988997 -0.076083735

classifier.11.running_mean f4 [64]
00000000: c22f ccbe cf7a 44be 222b 6fbf 97b8 9ebf
00000010: ef4f 22be a845 b83e 864a a1bd ea71 bcbe
00000020: eaf1 243e 6e0d 91be 5165 7bbf aa26 1dbf
00000030: a1a2 7dbf c888 963d 189f 7abf 6089 373f
00000040: 46dd e2be be07 75be d997 4fbe a43b 01bf
00000050: b60f f3be 838d aebe e13d d1be 730d 87bd
00000060: 1602 523e 6a4e 2ebf 034c 12be f730 35bc
00000070: f81c 55bf 636e 90bf 218f acbf 6987 ccbe
00000080: 81f4 fe3e a7fa 41bd bce0 8ebf 0dba 0c3f
00000090: a1ef 37bf 161e 9fbf 7a44 6cbe 3dc9 9cbd
000000a0: de03 debe b32a 8ebf cc90 dfbe 7b0e 273e
000000b0: 4138 8abf 1d78 133f 902e d53c beb0 693e
000000c0: 7be6 eebd f237 ccbe 15ab 88bd 48b8 16bf
000000d0: 9168 ecbe c9ff 313d 6b64 a53d 8ba3 14bf
000000e0: 4f49 66bf 9ab3 81be 13bb a73d 7990 973c
000000f0: c8e6 8ebf a58d 143f f78f ba3e 4c72 35bf
-0.39880186 -0.19187473 -0.9342519 -1.2400082 -0.15850805 0.35990644 -0.07875542 -0.3680566
0.16107908 -0.2833056 -0.9820147 -0.6138712 -0.99076277 0.07350308 -0.9789901 0.7169399
-0.44309443 -0.23928735 -0.20272769 -0.5048163 -0.47472924 -0.3409234 -0.40867522 -0.06594362
0.20508608 -0.680884 -0.14286809 -0.011059037 -0.8324733 -1.1283687 -1.348118 -0.3994706
0.49795917 -0.04735818 -1.1162333 0.5497139 -0.7185002 -1.2431056 -0.23072997 -0.07655571
-0.43362325 -1.1106781 -0.4366516 0.16314118 -1.0798417 0.57605153 0.02602318 0.22821328
-0.116650544 -0.39886433 -0.06673256 -0.5887494 -0.46173528 0.043456826 0.08075794 -0.58062047
-0.8995561 -0.25332338 0.081899785 0.018501507 -1.1164179 0.5802863 0.3643796 -0.7087753

classifier.11.running_var f4 [64]
00000000: acd8 0c3f e1eb 123f 433d 1b3f 81dc d63e
00000010: f21d 013f 54d8 033f da8b ed3e 51a0 fc3e
00000020: e520 fe3e 1f07 0e3f 2c7a d43e 57f2 f73e
00000030: 968d f13e fff5 e13e a480 f33e 937e 0c3f
00000040: 94cf 253f fcb1 f13e ae52 3e3f 0d82 033f
00000050: 75c7 cd3e 4bd1 473f 54b9 003f 7edd cc3e
00000060: 0df3 cc3e feb9 ed3e 4cfc 023f 5727 df3e
00000070: f54c 133f 9b32 033f 1675 f83e 8020 bc3e
00000080: a2e8 d33e cbaa 393f 8234 243f 258f d83e
00000090: 529c 203f 2c48 173f fc49 073f f500 dc3e
000000a0: 66ad 0c3f 8cb7 273f 487c 213f e3fb e83e
000000b0: 426d 063f 7273 e33e dd8f 113f e45f ee3e
000000c0: 5398 fb3e 0ec5 1f3f 8aab 203f efac 0e3f
000000d0: f149 073f 90fe f53e 1923 d73e 73bd 483f
000000e0: eb22 0e3f 7cc6 043f b2f2 163f 62cc 0a3f
000000f0: 4ba1 e33e 1f0a 203f d0a8 be3e 7c15 fb3e
0.55018115 0.5739117 0.6064035 0.41965106 0.5043632 0.51501966 0.4639576 0.49341062
0.49634472 0.55479616 0.4149946 0.48427078 0.47178334 0.44132993 0.47559083 0.54880637
0.64769864 0.47206104 0.7434491 0.51370317 0.40191236 0.7805373 0.5028279 0.40012735
0.40029183 0.46430963 0.51166224 0.435847 0.575393 0.5124909 0.4852683 0.36743546
0.41388422 0.72526234 0.6414262 0.4229671 0.62738526 0.590945 0.52847266 0.4296948
0.54952085 0.65514445 0.63080263 0.45504674 0.52510464 0.44424015 0.5686014 0.46557534
0.49139652 0.62410057 0.6276175 0.55732626 0.528472 0.48045778 0.42018965 0.78414077
0.5552203 0.51865363 0.58964074 0.54218113 0.44458994 0.62515444 0.3723817 0.4903983

Linear.weight f4 [10, 576]
00000000: c814 21bd b7b6 93bc 8bf2 8cbc 1731 7ebd
00000010: 9be1 5b3b 575d 6b3d 99af 2e3c a143 e1bd
00000020: 776b bd3d fce5 97bd ea85 c53d 98a0 493d
00000030: 8cd7 6a3d 8e71 6c3d 4516 1fbd 30e1 43bd
00000040: 4f70 b83c fcf6 863b 0af3 613d 4592 21bd
00000050: af10 2a3c de5e a8bd ed84 863b 1469 1a3b
00000060: 0d0f 40bd f4cc f53c 85cc 96bc f5eb 833d
00000070: 7ce0 34bd 1ac4 003e d9a4 783c 2e28 9abd
00000080: 4f93 953b 127c 393d 894b 5abc 81fd 1abe
00000090: a57d c53b e14f 3c3c 888b a13b 354c 4c3c
000000a0: 01d2 28bc e2fa 3bbd 0856 e2bc bc29 1e3d
000000b0: 34b4 e13c bc07 7abc b6eb 26bd 59b3 883d
000000c0: 99a2 f9ba 4af8 9fbd fc6b 883d e6b8 51bc
000000d0: 7020 cc3d f59d 9d3b 8733 fdba 06e3 423c
000000e0: d988 9ebd df61 9d3d cf72 d03d e8a2 61bd
000000f0: e2f8 88bc 73e6 a73d 42e3 d5bd f435 053d
00000100: 6f45 57bd fa77 923d 8050 543d b6b6 fe3b
00000110: 5f7a 84bd 2295 803b b6ca 4f3d d3c2 06be
00000120: 35e0 b5bc d71b 55bd 8d2d c83d 2c14 cdbd
00000130: 8dbe 93bb 3b0f 363d c8e1 9d3d 69e4 9dbb
00000140: fb19 87bd 68f5 023d a86d 81bd f259 72bd
00000150: 69eb 443d 539d 0c3d 8064 14bc e935 f3bd
00000160: 2035 f93c e8c8 33bc d120 b2bc 0b3e 873d
00000170: 3625 a8ba 446d a8bc e41f 293d 6ba8 1c3d
00000180: d709 35bd f393 3c3d 3203 d7bc 158f 963d
00000190: 3694 503d 6d21 df3c 7fce 813d 8206 4d3c
000001a0: bc75 71bd 8272 cfbd 253e 21bd c870 e0bc
000001b0: a442 db3d 3990 0d3d 1a27 7d3c d08d bf3d
000001c0: d94a 80bd 9d4c 5fbe 42e4 81bd f257 903c
000001d0: 5832 d7bc 1a67 89bd 8a8a c7bd 3b03 673d
000001e0: cc08 7d3d 6a28 d93d ae83 013b e07d bc3c
000001f0: dc65 ef3b f888 e0bd aa55 9abc fcf1 31bb
00000200: fa31 7c3d 9fad 68bb b271 c43c d279 e6bc
00000210: 627a 55bd 1948 69bd 198d 97bc d017 883d
00000220: 33cf 0fbd e42a 043d 52b0 17bd 89c1 993d
00000230: 8b4b 34bd fbd0 95bd 5348 913d bbb3 97bd
00000240: 5ceb 9fbb 0c34 45bb c1fc 933d 0583 afbd
00000250: 931f 50bd 4517 f43c c2e5 003c 3330 fabd
00000260: 0475 fa3c 8cd3 5a3c 0d3e 95bb 51ca a33d
00000270: 5180 dbbc e62b c5bc b1d1 143d 4dcb d03c
00000280: 35ee f5bc 3d6d 9bbd e5e5 f8bd 14e5 96bc
00000290: ba22 c23c 6527 adbc caf4 2d3d 22c7 f33c
000002a0: fc75 913d 52cf a23d 5cc7 0c3e f5ed 963d
000002b0: 8b63 643c 90b0 3c3d 1812 093d bee1 10bd
000002c0: 9577 243d 94f1 c0bc 0c32 98bd 4078 cabd
000002d0: ea17 be3d c2e5 6ebc 65f4 033d fd9e 01be
000002e0: ecc2 ba3c 760e acbd e7d9 26be f3ba 7cba
000002f0: 8a6b edbc 809d f13c 7dc2 68bd 1b0c 8bbc
00000300: e24d 0c3d f196 973d 5a41 a9bd fc9a 303c
00000310: c7f7 f23c d9f8 45bc 21e5 a03d f7a5 303d
00000320: ef3e b03b d848 01be 04b6 693d 6aed 0cbe
00000330: df49 63bd 9dda 81bc 85a5 683d 52ce 41bd
00000340: 3b93 ce3c 13c3 fa3b 0a49 723d 152e 40bd
00000350: 449e 6bbd 703e 50bd 78b5 47bd e9e4 64bc
00000360: f81d 873d 4307 8ebc ebf7 8bbd 2c72 983d
00000370: edb6 d23c 37db 3bbd c7f8 0abe 1955 b4bd
00000380: a5ba eb3d 0afe a63a 752f 58bb cacb 22bc
00000390: f99a 2abd 633c 953c ac91 853c 57b2 0bbd
000003a0: 0b6b a8bb 72a9 493d dbca 273d 89e7 253c
000003b0: 87d7 8e3d 29ec ed3a fd9d 1abd a4d0 053d
000003c0: 8e2e 1cbd 7431 db3b 57eb e4bd fdab 1c3e
000003d0: d824 c23c eac0 31bb 2f56 89bd 39bb fa3b
000003e0: 00ac a43b bbe5 d8bd f9f3 c3bb c7dc 203d
000003f0: 7797 1b3d 7169 49bc c5b0 7a3c 05cb 00ba
-0.03932646 -0.018031461 -0.017205497 -0.062058534 0.003355122 0.057462063 0.010661983 -0.10999227
0.09249013 -0.07416913 0.09644683 0.04922542 0.057334468 0.05772548 -0.038839597 -0.047822177
0.02251449 0.0041187983 0.05516342 -0.039446134 0.010379954 -0.082212195 0.0041052015 0.0023561167
-0.046889354 0.030004956 -0.01840807 0.064414896 -0.044159397 0.12574807 0.0151760215 -0.07527195
0.0045646797 0.04528434 -0.013323673 -0.15135767 0.006026941 0.011493654 0.0049299635 0.012469341
-0.010303975 -0.045893557 -0.027628914 0.03861402 0.027551748 -0.015260633 -0.040752135 0.06674833
-0.001904565 -0.07811029 0.066612214 -0.012800431 0.099671245 0.0048100897 -0.0019317725 0.011894947
-0.07740945 0.07684683 0.10178148 -0.055087 -0.01672024 0.081982516 -0.104437366 0.032522157
-0.05255645 0.0715179 0.051834583 0.0077732457 -0.06468653 0.003924028 0.05073043 -0.13160257
-0.022201637 -0.052028503 0.09774313 -0.10013613 -0.0045087994 0.04444812 0.0770908 -0.0048184884
-0.06596752 0.03197232 -0.063197434 -0.05916781 0.048076067 0.034329724 -0.009057164 -0.11875517
0.03042084 -0.010973193 -0.021744164 0.06603631 -0.0012828473 -0.020559914 0.04129018 0.038246553
-0.044198837 0.046039533 -0.02624664 0.073515095 0.050922595 0.027237618 0.06338214 0.012513759
-0.05895017 -0.101292625 -0.039365906 -0.027397528 0.1070607 0.03456137 0.015451217 0.093532205
-0.06264276 -0.2180657 -0.06342365 0.01762006 -0.026269123 -0.06709118 -0.09743221 0.056399565
0.061775967 0.106034115 0.0019762325 0.02300924 0.0073058438 -0.10963625 -0.018839676 -0.002715229
0.0615711 -0.0035503877 0.023979995 -0.02813426 -0.052118666 -0.056953523 -0.018499898 0.06645167
-0.03510971 0.032267466 -0.037033387 0.07507617 -0.044017356 -0.073152505 0.07093873 -0.07407328
-0.004880352 -0.0030090837 0.07225943 -0.08569912 -0.05081136 0.029796252 0.0078672785 -0.122162245
0.030573376 0.013356101 -0.004554516 0.07997573 -0.026794584 -0.024068784 0.03633279 0.025487566
-0.030020813 -0.07589195 -0.12153224 -0.01841978 0.0236982 -0.021136949 0.042469777 0.02975804
0.07102582 0.079496995 0.13747925 0.073696055 0.0139397485 0.04606682 0.03346452 -0.035371535
0.040153105 -0.023552693 -0.07431421 -0.09886217 0.09281905 -0.014581146 0.032215495 -0.12658305
0.022798024 -0.08401196 -0.1629406 -0.0009640895 -0.028981943 0.029494047 -0.056826103 -0.016973546
0.034253962 0.07401837 -0.08264418 0.010779139 0.029659165 -0.012083256 0.07856203 0.043127026
0.005378596 -0.12625444 0.05705835 -0.13762441 -0.05549037 -0.015851313 0.056798477 -0.047315903
0.02521669 0.007652649 0.059151687 -0.046918947 -0.05752398 -0.050840795 -0.048757046 -0.013970592
0.06597513 -0.017337447 -0.06834396 0.074436516 0.025721991 -0.045863356 -0.13571464 -0.088052936
0.11510209 0.0012740504 -0.003298727 -0.009936282 -0.0416517 0.018217271 0.016304813 -0.034105625
-0.0051397136 0.04923386 0.040964942 0.010126003 0.06974702 0.0018152046 -0.037748326 0.03266968
-0.038130336 0.006689245 -0.111777 0.15299983 0.02369921 -0.0027123042 -0.06705891 0.007651713
0.005025387 -0.105906926 -0.0059800115 0.03927305 0.037986245 -0.012293206 0.015300934 -0.0004913065

Linear.bias f4 [10]
00000000: b83e 8e3a 869e 8a3c e6f2 d63b c482 da3c
00000010: 881d 093d 9510 65bc 0b19 423d a6e6 c9bc
00000020: f067 d2bc 7a0c 13bd
0.0010852432 0.016921293 0.0065597175 0.026673682 0.03347543 -0.013981004 0.047387164 -0.024646115
-0.025684327 -0.03590057
